saved_models/Ours_GAT/amazon_photo_5000.ckpt (torch, 211343 bytes, 8 tensors)

gat_layers.0.attn_l f4 [1, 8, 8]
0	0x40542bc4	3.3151712
1	0x4036ea81	2.858063
2	0xc0473ec8	-3.1132069
3	0x404ad410	3.1691933
4	0x40443832	3.06593
5	0xc0898acf	-4.2981944
6	0x4034263f	2.8148344
7	0x40765ad7	3.8492944
8	0xbebb6ebc	-0.3660792
9	0x408b498b	4.3527274
10	0xc0a2036a	-5.0629168
11	0x40839daa	4.112996
12	0xc0397e77	-2.8983438
13	0xc028bbdc	-2.636466
14	0xc01c380b	-2.4409206
15	0x40b0aac6	5.5208464
16	0x403f9935	2.993726
17	0xc05452b3	-3.3175476
18	0x40303fa5	2.7538846
19	0xc0a24169	-5.0704846
20	0xc0856477	-4.168514
21	0x3f95691d	1.1672703
22	0xc09ccb80	-4.8998413
23	0xc08cbc3b	-4.3979774
24	0xc067efb9	-3.6240065
25	0xc091eef4	-4.560419
26	0xc0824e32	-4.0720453
27	0x4092b982	4.585145
28	0x3f1a5f35	0.60301524
29	0x3f0f53be	0.55987155
30	0x40793a21	3.894173
31	0x4023daef	2.5602376
32	0xc074c66e	-3.8246112
33	0x408d6ae2	4.419297
34	0xc0943c0f	-4.6323314
35	0xc0960872	-4.688531
36	0x3feaac9c	1.8333926
37	0x40848263	4.1409163
38	0xbfc665b7	-1.5499791
39	0xc0548082	-3.3203435
40	0xc07b6c23	-3.9284751
41	0xbfe8d306	-1.8189399
42	0x407e84fb	3.9768665
43	0xc084e7e6	-4.153308
44	0x3fbb4cf9	1.4632865
45	0xc08a068a	-4.313298
46	0xc05c82b8	-3.4454784
47	0xc00064f8	-2.0061626
48	0x407a43b8	3.9103832
49	0xc0590afd	-3.3912957
50	0xc08bc2ed	-4.3675447
51	0x403e921f	2.9776685
52	0xc09613ac	-4.6899014
53	0xc096b822	-4.709977
54	0xc087c1af	-4.242393
55	0xc04fd48b	-3.2473476
56	0xc09bfabf	-4.8743587
57	0x409bb41b	4.8657355
58	0xc09b61c9	-4.8556867
59	0xc059b52a	-3.4016824
60	0xc08b3033	-4.3496337
61	0xc084db2a	-4.1517534
62	0xc0291058	-2.6416225
63	0x409806aa	4.7508135

gat_layers.0.attn_r f4 [1, 8, 8]
0	0xbf07c52a	-0.53035223
1	0x3e784414	0.2424472
2	0xc07b06b5	-3.9222844
3	0x3ff7a081	1.9345857
4	0xbfd080a5	-1.6289259
5	0xc084352f	-4.131492
6	0x401d6d35	2.4597905
7	0x3ed34263	0.41261587
8	0x3ee6284c	0.4495262
9	0x3ff3cb15	1.9046351
10	0xc08a11e0	-4.314682
11	0x4024950d	2.5715973
12	0xbf1c7890	-0.61121464
13	0x3fa7c1dd	1.3106037
14	0x3fd747bc	1.6818767
15	0x4081a061	4.0508275
16	0xbfff7de9	-1.99603
17	0x403ca147	2.9473436
18	0x40611fb5	3.5175602
19	0x3e1b01c7	0.15137397
20	0xc03fbe9a	-2.9960084
21	0xbf7fe1ee	-0.99954116
22	0xc0a0dd45	-5.0270104
23	0xbf482f1b	-0.7819688
24	0xbffb7f3b	-1.9648203
25	0x3ca4fc0d	0.020139718
26	0x3f1a5a6c	0.6029422
27	0x401eed21	2.4832232
28	0x405ab534	3.4173098
29	0xbf2eb899	-0.68250424
30	0x404ed0aa	3.2314858
31	0x4034e9d4	2.8267717
32	0xc0655c08	-3.5837421
33	0xbefcaa5a	-0.49348718
34	0xc070a53a	-3.7600846
35	0xc023de26	-2.5604339
36	0xbfe6c488	-1.8028727
37	0x4018dd99	2.3885252
38	0xbff8badb	-1.9432024
39	0x3f2c6fbd	0.67358
40	0xc036503b	-2.8486469
41	0xc04a2efa	-3.1591172
42	0x402e4198	2.7227535
43	0xbf40914a	-0.75221694
44	0x3fdeabcc	1.7396178
45	0x3edf6142	0.4362889
46	0xbf7df11b	-0.9919602
47	0xbfd31051	-1.6489354
48	0x3facbcea	1.3495152
49	0xc04de435	-3.2170537
50	0xc0a05e08	-5.0114784
51	0xbe90e99f	-0.2830324
52	0xc07aa550	-3.9163399
53	0xbfaa4b97	-1.3304318
54	0xbf90b962	-1.1306574
55	0xc04a01b1	-3.1563532
56	0x3f30fd75	0.69136745
57	0xbeb6f78e	-0.35735744
58	0xbf2a74af	-0.66584295
59	0x3f578344	0.8418467
60	0xc072e945	-3.7954876
61	0xc0520251	-3.2813914
62	0xbff450a4	-1.908711
63	0x409fb1f9	4.990475

gat_layers.0.bias f4 [64]
0	0x3b63a11f	0.0034733487
1	0x3bac718b	0.005262559
2	0x3c1238ac	0.008924644
3	0xb9dcb4e7	-0.00042096453
4	0x3c3c1fed	0.011482221
5	0x3b0c95b9	0.0021451546
6	0x3af2a2f1	0.0018511695
7	0x3aaa98c8	0.0013015503
8	0x3b35555f	0.0027669293
9	0x3b1b4ae4	0.0023695761
10	0x3bfbe5ab	0.0076872907
11	0xbbed1060	-0.007234618
12	0x3ba85b14	0.0051378105
13	0x3b420112	0.0029602689
14	0xbb9aa29e	-0.0047190925
15	0xbb1aa394	-0.0023596035
16	0x3b8b5e1e	0.004253163
17	0x3b182b07	0.0023219006
18	0xbbe6a4fe	-0.0070387116
19	0xbb342f1f	-0.0027493907
20	0xbb40f95f	-0.0029445512
21	0x3c060925	0.008180891
22	0x3c9635a8	0.018336132
23	0x3b01cd61	0.0019806253
24	0x3c052dff	0.008128642
25	0x3ad48030	0.0016212519
26	0x3bb546ca	0.0055321204
27	0xbbbb55a8	-0.005716998
28	0xbb83de8d	-0.004024333
29	0xbb87abdc	-0.0041403603
30	0xbb0e2e8e	-0.002169523
31	0x3913386c	0.00014040031
32	0x3c346feb	0.011013011
33	0x3ba88a56	0.005143444
34	0x3bf42552	0.007450738
35	0x3c133e41	0.00898701
36	0x3a539a98	0.00080720475
37	0x3a0e68b8	0.00054324744
38	0x3b8173f9	0.0039505926
39	0xbc2ab882	-0.010419967
40	0x3c2b383d	0.01045042
41	0x3c08136e	0.008305414
42	0xbacccaab	-0.0015624365
43	0x3b20f752	0.0024561477
44	0x39d876a0	0.00041287113
45	0xbb94114b	-0.004518663
46	0xbb3984da	-0.0028307945
47	0x3b69bc07	0.0035665052
48	0x3ab45bfc	0.0013760324
49	0x3b9ae628	0.004727144
50	0x3a1ac7cb	0.0005904405
51	0x3b3480f3	0.002754268
52	0x3bcbd88d	0.006220883
53	0x3bbc47af	0.00574585
54	0xbb45e879	-0.003019838
55	0x3c2a3514	0.010388631
56	0x3a8a7c33	0.0010565579
57	0x3ae37845	0.0017354569
58	0x3b188ba9	0.0023276603
59	0xbb0d6a95	-0.002157842
60	0x3b6c8cf8	0.0036094766
61	0x3c1fd6dd	0.009755817
62	0x3bb9a07a	0.0056648823
63	0xbc2a83e9	-0.010407426

gat_layers.0.fc.weight f4 [64, 745]
0	0xbd8fe551	-0.070261605
1	0xbd5d19ff	-0.05397987
2	0xbed24dcc	-0.4107498
3	0x3da5c925	0.08095006
4	0x3b9a7885	0.004714074
5	0xbf0c1908	-0.54725695
6	0xbda5be8f	-0.08092987
7	0x3e6385ba	0.22218981
8	0xbd9cce8f	-0.076565854
9	0x3e0c5684	0.13704878
10	0x3dc17543	0.09446194
11	0xbde3f165	-0.11130027
12	0x3d7c24ed	0.061558653
13	0xbc9e28bb	-0.019306531
14	0xbd42f738	-0.047599047
15	0xbe0ede9b	-0.13952105
16	0xbcbb2a45	-0.022847304
17	0x3d024ddb	0.03181253
18	0x3ca39c0d	0.019971872
19	0x3dbdbbe9	0.09264357
20	0xbda64faa	-0.081206635
21	0xbdc74dd7	-0.09731644
22	0x3d4a635e	0.04941117
23	0xbdccdce6	-0.100030705
24	0xbe2514e9	-0.16121258
25	0x3c93c25b	0.018037012
26	0x3c1f02be	0.009705244
27	0x3e1fd33d	0.15607925
28	0xbd9265a2	-0.07148291
29	0x3dddd427	0.108314805
30	0xbc872544	-0.016497262
31	0x3d8cb376	0.06870167
32	0x3e3e0cdc	0.18559593
33	0xbe05665a	-0.13027325
34	0x3e855b36	0.2604615
35	0xbe97670f	-0.29570815
36	0xbc4c94c0	-0.012486637
37	0xbda3c01b	-0.079956256
38	0xbdc8bc76	-0.09801571
39	0x3d4510a8	0.048111588
40	0x3e0249fa	0.12723532
41	0x3cb774fa	0.022394646
42	0xbe130d92	-0.14360645
43	0x3e93055f	0.28715035
44	0x3d1df84d	0.038566876
45	0xbe5b0ed2	-0.21392372
46	0xbd940f99	-0.072295375
47	0x3d06d20e	0.032915168
48	0x3c1cd0fe	0.009571312
49	0xbf4ae2a2	-0.79252064
50	0x3cd38b2a	0.025823195
51	0x3c18ea67	0.00933323
52	0xbd564cab	-0.05231921
53	0x3dee00f8	0.116212785
54	0xbc8436cc	-0.01613941
55	0x3e82f633	0.2557846
56	0xbd13396e	-0.03594344
57	0xbeb1d72b	-0.34734473
58	0xbdb91768	-0.090376675
59	0x3c571c63	0.0131293265
60	0x3d50de34	0.05099316
61	0xbeec4701	-0.46147922
62	0xba2ff52e	-0.0006712255
63	0x3dcbfa86	0.09959893
64	0xbe3ad7ce	-0.18246385
65	0xbd852a4d	-0.06502209
66	0x3da4edb1	0.080531485
67	0xbdd4f6ca	-0.10398634
68	0xbd887db8	-0.06664604
69	0x3eab734a	0.33486396
70	0x3ed408f5	0.41413084
71	0x3d6c8379	0.05774257
72	0xbd7848ba	-0.060616232
73	0x3da3c281	0.07996083
74	0xbc9a5e96	-0.01884393
75	0xbe30f3d7	-0.17280518
76	0x3e4043f3	0.1877592
77	0x3e0417ab	0.12899654
78	0x3e179c41	0.148057
79	0x3eb1713c	0.34656703
80	0x3e7046ab	0.23464458
81	0x3ea88a80	0.32918167
82	0xbe9dfbd1	-0.30856183
83	0xbdf4f443	-0.11960652
84	0x3f0263d7	0.50933594
85	0xbd62c119	-0.055359934
86	0x3dc6728e	0.09689818
87	0xbc8dbe6e	-0.017302718
88	0x3d9ea7ad	0.07746825
89	0x3e2fd011	0.17169215
90	0x3ed6981b	0.41912922
91	0x3c973049	0.018455641
92	0x3e773e61	0.2414489
93	0x3d9ecf42	0.07754375
94	0xbd548b21	-0.051890496
95	0x3dce56a6	0.10075121
96	0x3d1c6482	0.03818179
97	0x3e39da26	0.18149623
98	0xbc84f5cd	-0.016230488
99	0x3b94d7cb	0.004542326
100	0xbdf2dc3c	-0.118584126
101	0xbd6457c5	-0.055747766
102	0x3e4a20ea	0.19739118
103	0xbd3df0f8	-0.046372384
104	0xbe6d1d31	-0.23155667
105	0xbe8f2353	-0.27956638
106	0xbd574e89	-0.05256513
107	0x3de05142	0.10952999
108	0xbea1435c	-0.31496704
109	0xbdb48134	-0.08813706
110	0xbd8385a6	-0.06421976
111	0xbcd7d508	-0.026346698
112	0x3e875732	0.26433712
113	0x3debe483	0.115181945
114	0xbe662de4	-0.22478443
115	0xbeb9a1c5	-0.36256233
116	0x3d133048	0.035934716
117	0xbe29ae49	-0.16570391
118	0x3e491d4a	0.19640079
119	0xbbb8e3d9	-0.005642396
120	0xbf508388	-0.814507
121	0x3e6dcd9b	0.23222964
122	0xbd9b32a2	-0.07578017
123	0x3d2a4ffc	0.041580185
124	0xbe347a57	-0.17624794
125	0xbaef30c9	-0.0018248792
126	0x3d62b4e5	0.055348296
127	0xbdad85a8	-0.084727585
128	0x3c3a78aa	0.011381308
129	0x3cdfc2a8	0.027314499
130	0xbe03578d	-0.12826367
131	0x3d76ec7d	0.060284127
132	0xbdfc3f88	-0.12316805
133	0x3d24e4e0	0.040257335
134	0xbdfcca1f	-0.12343239
135	0xbf98df0b	-1.1943067
136	0xbe5abd54	-0.21361285
137	0xbdc5272f	-0.09626614
138	0x3ed14613	0.40873775
139	0xbe0e33ff	-0.13887022
140	0x3cd1c47b	0.025606385
141	0xbe0a6d8d	-0.13518353
142	0x3ce0bc92	0.027433667
143	0xbd852e40	-0.06502962
144	0xbe0dc244	-0.13843638
145	0xbd9dfcbf	-0.07714223
146	0xbea69f21	-0.3254328
147	0xbd411858	-0.047142357
148	0xbe205312	-0.15656689
149	0x3c0d70b2	0.008632826
150	0x3d91bc80	0.07116032
151	0xbd8e0ed5	-0.06936423
152	0xbc864133	-0.016388511
153	0xbc99d137	-0.01877652
154	0x3e0ec52c	0.13942403
155	0xbe1549f1	-0.14578988
156	0x3d306d04	0.043072715
157	0x3c483469	0.012219527
158	0xbe08512c	-0.13312215
159	0xbdb33266	-0.08749847
160	0x3e3ff752	0.18746689
161	0xbdbb67cf	-0.09150659
162	0xb93ce825	-0.00018015558
163	0xbcc5d7c1	-0.024150731
164	0x3d901660	0.07035518
165	0xbe4d849d	-0.20070119
166	0xbdc49d61	-0.0960033
167	0x3e70680f	0.23477195
168	0x3de8a8c9	0.11360318
169	0x3d340d36	0.04395791
170	0x3d3550ca	0.0442665
171	0x3ca7a80e	0.020465877
172	0xbe8d9d5c	-0.27659118
173	0x3e2c4649	0.16823687
174	0xbd170e5e	-0.036878936
175	0x3e56fe5e	0.20995471
176	0x3d82a16a	0.063784435
177	0x3d837166	0.064181134
178	0xbdc40d0b	-0.095728
179	0xbc8a1953	-0.016857779
180	0xbe29abc3	-0.16569428
181	0xbba0fd74	-0.0049130265
182	0x3f3dc4a5	0.7412818
183	0xbd12e8b1	-0.035866443
184	0xbde575bd	-0.112040974
185	0xbda98cbc	-0.08278796
186	0x3e08d27b	0.13361542
187	0xbca32dc8	-0.019919291
188	0xbe7c8055	-0.2465833
189	0x3e3f6e1a	0.18694344
190	0x3d29d18d	0.04145961
191	0x3e1ecc3e	0.155076
192	0xbb9a73eb	-0.0047135255
193	0xbe5116a6	-0.20418796
194	0xbdbe4db9	-0.09292168
195	0xbd5f9753	-0.054587673
196	0xbd722e9e	-0.05912649
197	0x3dc36966	0.095415875
198	0xbe0664c5	-0.13124378
199	0xbe121c15	-0.14268525
200	0xbdac2a17	-0.084064655
201	0x3ddeedb1	0.1088518
202	0xbdd018ce	-0.10160981
203	0xbe08431e	-0.13306853
204	0xbd561f18	-0.052275747
205	0xbd65dd0f	-0.05611902
206	0xbe402230	-0.18763041
207	0xbb9516a9	-0.0045498204
208	0xbe934a1c	-0.28767478
209	0xbd1c6894	-0.03818567
210	0xbcb52cef	-0.022116153
211	0x3ac7e95a	0.0015252039
212	0x3cfb9500	0.030710697
213	0xbddd32ab	-0.1080068
214	0xbd334a9a	-0.043772317
215	0x3e615041	0.2200327
216	0x3e55034e	0.20802042
217	0xbd1b999d	-0.037988294
218	0xbd5a4bec	-0.05329506
219	0x3e428024	0.18994194
220	0x3e5d46d6	0.21609053
221	0xbd90d650	-0.07072127
222	0x3d18ced1	0.03730661
223	0x3b9c7e7c	0.0047758203
224	0x3ce949f1	0.02847764
225	0x3cf10f9c	0.029426388
226	0xbe3b7397	-0.18305813
227	0xbc6d6a99	-0.014490747
228	0x3c613798	0.013746165
229	0xbf023225	-0.50857764
230	0x3d09d7fb	0.03365324
231	0x3d2425e6	0.040075205
232	0x3e2aeba7	0.16691457
233	0xbe694384	-0.22779661
234	0x3ce3be66	0.02780075
235	0xbd359a5a	-0.044336654
236	0xbcfe8ffa	-0.031074513
237	0x3cdf7758	0.027278587
238	0xbe003f25	-0.12524088
239	0x3e68b648	0.22725785
240	0x3db30d14	0.08742729
241	0xbc23a0fc	-0.009987112
242	0x3e0f67dc	0.14004463
243	0x3d39d19f	0.045365926
244	0xbd86728c	-0.06564817
245	0xbe9f6a63	-0.31135854
246	0xbd13a9f7	-0.036050763
247	0x3e740147	0.23828612
248	0x3e5742b7	0.21021543
249	0x3e5fe330	0.21864009
250	0xbeb24895	-0.34821
251	0xbdd307b0	-0.10304201
252	0x3e2251be	0.15851495
253	0xbea980da	-0.33106118
254	0x3e3f282b	0.18667667
255	0xbddbec54	-0.107384354

gat_layers.1.attn_l f4 [1, 8, 8]
0	0x3fb0611b	1.3779634
1	0x3d07e3be	0.033176176
2	0x3ddc2df7	0.107509546
3	0xbce99bb2	-0.028516624
4	0xbe9eb29f	-0.30995652
5	0xbeae10d0	-0.33997202
6	0x3f3fc52a	0.74910223
7	0x3ddfb21d	0.10922644
8	0xbeac9a50	-0.3371148
9	0xbf2f71dd	-0.68533117
10	0xbde2b02b	-0.110687576
11	0x3d3654b7	0.044514384
12	0x3ecc4528	0.39896512
13	0xbf617e8c	-0.8808372
14	0xbea36395	-0.31911913
15	0xbe7b5dd7	-0.24547516
16	0xbf0881d9	-0.5332313
17	0xbf349abb	-0.705486
18	0x3f91e229	1.1397144
19	0xbc7276da	-0.014798844
20	0xbda89664	-0.0823181
21	0xbf2ec5d3	-0.68270606
22	0x3f6148f7	0.8800196
23	0xbf1fbbb6	-0.623958
24	0x3f33a771	0.7017737
25	0x3e05a93b	0.13052838
26	0xbee48046	-0.44629115
27	0x3e547479	0.20747556
28	0x3f3b958c	0.73275065
29	0xbf61c0e2	-0.8818494
30	0x3dea2bf3	0.11434164
31	0x3edf2bb1	0.4358802
32	0x3edbdb4c	0.42940748
33	0x3ec2f19f	0.38074967
34	0xbec40a09	-0.38288906
35	0x3f1035df	0.563322
36	0x3e62949f	0.22127007
37	0xbf83fd7d	-1.0311733
38	0xbdecaee9	-0.11556799
39	0x3e7b63cf	0.24549793
40	0x3f383d74	0.7196877
41	0xbeeadbb5	-0.45870748
42	0xbf4989cb	-0.7872588
43	0x3ed5af4d	0.41735306
44	0xbf075cd8	-0.52876043
45	0x3eb3d760	0.35125256
46	0x3f6ac1b3	0.9170181
47	0x3c03a836	0.00803571
48	0x3e9d9bd0	0.30782938
49	0xbe6c97f3	-0.23104839
50	0xbef98d6e	-0.48740715
51	0x3ef8b803	0.4857789
52	0xbf17abde	-0.59246624
53	0x3f105018	0.56372213
54	0xbe0a69d2	-0.1351693
55	0xbe3dc776	-0.1853312
56	0x3e97f7b9	0.29681185
57	0x3d912637	0.07087367
58	0xbf84373d	-1.0329357
59	0x3ea7c480	0.32767105
60	0xbedcd725	-0.43132892
61	0x3e1de80e	0.15420553
62	0x3f5eb652	0.8699695
63	0xbf00167e	-0.5003432

gat_layers.1.attn_r f4 [1, 8, 8]
0	0xbfb6e072	-1.4287245
1	0xbd321339	-0.043475363
2	0xbdf87564	-0.121317655
3	0x3cb3a5ea	0.0219297
4	0x3ea1a7f1	0.31573442
5	0x3eb86889	0.36017254
6	0xbf3f49e0	-0.747221
7	0xbdc6dcdb	-0.097100936
8	0xbfcb25f8	-1.5870962
9	0xbf655bf8	-0.8959346
10	0xbf0b5613	-0.54428214
11	0x3dd688bc	0.10475299
12	0xbf478554	-0.7793782
13	0x40405b9b	3.0055912
14	0xbf4bef6c	-0.79662204
15	0x3f26ce15	0.65158206
16	0x3f1b11f1	0.6057425
17	0x3f38b863	0.7215635
18	0xbfa1e0c4	-1.2646718
19	0xbd36c660	-0.04462278
20	0x3e19d66a	0.15023199
21	0x3f43e91e	0.76527584
22	0xbf7894f7	-0.971023
23	0x3f262e67	0.64914554
24	0xbfc40d79	-1.5316612
25	0x3e0ad840	0.13559055
26	0x3f25cde5	0.64767295
27	0xbf83efdf	-1.0307578
28	0xbf680b44	-0.9064219
29	0x3f612d1a	0.87959445
30	0x3edbe025	0.42944446
31	0xbf5e71d9	-0.8689247
32	0xbf85d27e	-1.0454862
33	0x3ce5fe82	0.02807546
34	0x3ecc988c	0.39960134
35	0xbfe5baa9	-1.7947589
36	0xbf03f497	-0.5154509
37	0x3fc248c6	1.5178459
38	0xbebbe484	-0.3669778
39	0x3e9a7a8d	0.30171624
40	0xbfa437c1	-1.2829515
41	0x3f9aad14	1.2084069
42	0x3fe0f51d	1.7574803
43	0xbfadf105	-1.3589178
44	0xbeaf41ef	-0.3422999
45	0xbdb7132c	-0.089392036
46	0xbfdd2d9a	-1.7279541
47	0xbc241aa5	-0.010016118
48	0xbf8e2069	-1.1103641
49	0xbe8d61c6	-0.27613658
50	0x3fbac194	1.4590325
51	0x3f6ba0e4	0.92042375
52	0xbc902148	-0.017593995
53	0xc007b7ff	-2.1206052
54	0x3f7203f6	0.94537294
55	0xbe2e0500	-0.16994095
56	0xbe916ca5	-0.28403202
57	0xbe64d5a1	-0.22347118
58	0x3f585f2a	0.8452021
59	0xbf64a6e5	-0.8931716
60	0x3ecf32e7	0.40468523
61	0xbe3fc1da	-0.18726292
62	0xc0015468	-2.0207767
63	0x400b57ae	2.1772265

gat_layers.1.bias f4 [64]
0	0xbe12554d	-0.14290352
1	0x3dda0a31	0.10646475
2	0x3d030e99	0.031996343
3	0x3ca3a415	0.019975701
4	0x3c76e0f4	0.015068281
5	0x3db26e09	0.08712394
6	0x3d31b3a1	0.043384198
7	0x3ce24309	0.027619855
8	0xbd21abda	-0.03947053
9	0x3d643625	0.0557157
10	0x3dbbb95e	0.09166215
11	0x3c3c4889	0.011491903
12	0xbda636d2	-0.08115925
13	0x3ce29767	0.027660085
14	0xbc3db1e8	-0.011578061
15	0xbe06064b	-0.13088338
16	0x3c62b52e	0.013837142
17	0x3bb03e02	0.0053784857
18	0xbe0a0bd1	-0.1348107
19	0x3c9dff8e	0.019286897
20	0x3de896e7	0.11356907
21	0x3bd7ce7d	0.0065858946
22	0xbdda9a9f	-0.10674023
23	0x3bb68cff	0.0055710073
24	0xbdcef720	-0.10105729
25	0xbd53ed52	-0.05174
26	0x3d5d4cc7	0.0540283
27	0x3cc63885	0.024196872
28	0x3d4ff307	0.05076888
29	0x3de28dca	0.110622
30	0x3dc6374d	0.096785165
31	0x3d65f0d3	0.05613787
32	0xbda643ac	-0.08118376
33	0xbe00a15a	-0.1256155
34	0x3d633f4c	0.055480286
35	0x3b9ff002	0.004880906
36	0x3bbb5e80	0.0057180524
37	0x3d1e2994	0.03861387
38	0xbdc08854	-0.094010025
39	0x3d6ec79e	0.05829584
40	0xbe1f2643	-0.1554194
41	0x3cc99a8f	0.024609832
42	0x3a938bd7	0.0011256885
43	0xbce7abd7	-0.028280182
44	0xbd21bb3f	-0.039485212
45	0x3ca29e0e	0.019850757
46	0xbdd7b567	-0.105326466
47	0x3c10c7cb	0.008836697
48	0x3e02c432	0.12770155
49	0xbd86fd58	-0.0659129
50	0x3d720aeb	0.059092443
51	0xbc32a68c	-0.010903966
52	0x3d1ee090	0.03878838
53	0xbd173e95	-0.036924917
54	0x3d0caec9	0.034346376
55	0x3d76605b	0.060150485
56	0xbd1fba50	-0.03899604
57	0xbd987efc	-0.07446095
58	0x3cccf96b	0.025021276
59	0xbe19a2fe	-0.15003583
60	0xbd945c7b	-0.07244202
61	0x3b34d349	0.0027591756
62	0xbd7b171f	-0.061301347
63	0x3ccb84a7	0.024843527

gat_layers.1.fc.weight f4 [64, 64]
0	0xbe861e75	-0.26195112
1	0x3ec2d7ed	0.38055363
2	0x3e9170cb	0.28406367
3	0x3dc33c84	0.09533027
4	0x3eb7b714	0.35881865
5	0xbc86ad3b	-0.016440025
6	0x3ea431ae	0.32069153
7	0xbe6cd84a	-0.23129383
8	0x3e250700	0.16115952
9	0x3da017e3	0.07817056
10	0xbe4625c0	-0.19350338
11	0xbd0504a9	-0.032475147
12	0x3e3dc826	0.18533382
13	0x3f2ffcdc	0.6874521
14	0xbecb5e7f	-0.39720532
15	0x3e26eaa7	0.1630045
16	0x3e1b618a	0.15173927
17	0x3f1312d6	0.57450616
18	0x3d8383e1	0.06421638
19	0x3d892a43	0.06697514
20	0xbe154db0	-0.14580417
21	0x3e35d01f	0.17755173
22	0x3e5663ec	0.20936555
23	0x3ecefc88	0.4042704
24	0xbb964bff	-0.004586696
25	0xbe50eb80	-0.20402336
26	0x3ea9a2f3	0.33132133
27	0xbdbbc650	-0.091686845
28	0x3d764e60	0.060133338
29	0xbf223d08	-0.63374376
30	0x3d3a60f5	0.04550262
31	0x3eec9f22	0.4621516
32	0x3ea71fd1	0.32641461
33	0x3e1caac8	0.15299523
34	0xbd8f0831	-0.06983984
35	0x3e971869	0.2951081
36	0xbedf6c7f	-0.43637463
37	0xbf062137	-0.5239443
38	0xbc69dc16	-0.014273664
39	0xbef0378e	-0.46917385
40	0x3d404181	0.04693747
41	0xbe4f00bf	-0.20215128
42	0x3c49a1f6	0.012306681
43	0x3e6a008e	0.22851774
44	0xbd980286	-0.07422356
45	0x3e2f976c	0.17147607
46	0xbe0574a5	-0.13032778
47	0x3f3d5baa	0.73967993
48	0x3de57916	0.11204736
49	0x3d2661e9	0.04062072
50	0xbf0eb7eb	-0.55749387
51	0x3dbcc733	0.09217682
52	0xbda857e3	-0.08219888
53	0x3d1261cb	0.035737794
54	0xbdd27b39	-0.10277409
55	0x3e24ad4b	0.16081731
56	0xbc80247b	-0.015642395
57	0xbcb87eb6	-0.022521358
58	0x3ec3e8e6	0.38263625
59	0xbebddb2c	-0.37081277
60	0xbce2602d	-0.02763375
61	0x3ed0f6c1	0.40813258
62	0x3e25493f	0.16141222
63	0xbe870bbf	-0.2637615
64	0x3ef50f06	0.47863024
65	0x3ea6eff0	0.32604933
66	0x3ecb543f	0.39712712
67	0x3dc7de96	0.09759252
68	0x3e5dd92e	0.21664879
69	0xbe070f81	-0.13189508
70	0x3d938ab7	0.07204192
71	0x3f10a022	0.56494343
72	0xbc817852	-0.015804444
73	0x3e105c57	0.14097725
74	0xbb8bfd1f	-0.0042721177
75	0xbe52f58d	-0.20601483
76	0xbedd4522	-0.43216807
77	0xbe8dfcb0	-0.27731848
78	0xbf3b57ed	-0.7318104
79	0x3dc03532	0.09385146
80	0xbd5a7d72	-0.05334229
81	0xbed80da2	-0.421979
82	0xbf0ef2f6	-0.5583948
83	0x3d447fe0	0.047973514
84	0xbaf4c1d5	-0.0018673489
85	0x3d669909	0.05629829
86	0x3eba469a	0.3638199
87	0x3c5f8948	0.01364357
88	0xbe793f2a	-0.24340501
89	0xbe5d999a	-0.21640626
90	0xbecdf8fa	-0.40229017
91	0xbea7718f	-0.32703826
92	0xbeb927c6	-0.36163157
93	0x3e33a439	0.17543115
94	0xbe71ea42	-0.23624519
95	0x3d08164b	0.033224385
96	0x3e77583f	0.24154757
97	0x3e19079e	0.14944312
98	0xbd3041b0	-0.043031394
99	0xbe817af7	-0.25289127
100	0x3e2b316a	0.16718069
101	0x3e25b923	0.16183905
102	0xbd5f191c	-0.054467306
103	0xbef9fd08	-0.4882586
104	0x3e67a32d	0.2262084
105	0x3e7bb852	0.24582031
106	0xbe9a6e38	-0.30162215
107	0xbee16773	-0.44024238
108	0xbdbb73f6	-0.09152977
109	0xbe5fa52b	-0.2184035
110	0xbe4e7801	-0.20162965
111	0x3ec1192e	0.37714523
112	0x3e52175f	0.20516728
113	0x3bba087a	0.00567728
114	0x3e72714c	0.23676032
115	0x3e512323	0.2042356
116	0x3e37e92c	0.17960042
117	0xbeba4dd2	-0.36387497
118	0xbf212cec	-0.6295917
119	0x3e15052f	0.14552759
120	0xbe8a33dd	-0.26992694
121	0x3d140a2e	0.03614252
122	0xbe517893	-0.20456152
123	0xbebfe39c	-0.3747834
124	0x3e63427b	0.22193329
125	0x3c6524ab	0.013985793
126	0xbe01a61c	-0.12661022
127	0xbde7a050	-0.11309874
128	0x3e37cf85	0.17950256
129	0xbd14742b	-0.0362436
130	0xbe4f9633	-0.2027214
131	0x3f3281ef	0.6972951
132	0x3ea0b643	0.31389055
133	0xbe6f1a37	-0.23349844
134	0x3e29656a	0.16542593
135	0xbca098ea	-0.019604165
136	0xbd004e08	-0.031324416
137	0x3e62e90f	0.22159217
138	0xbbf03d41	-0.007331521
139	0xbd8855c6	-0.06656985
140	0xbe304bed	-0.17216463
141	0x3e3dc074	0.18530446
142	0x3e8b1def	0.27171275
143	0x3def7b6d	0.116934635
144	0x3e9cf53a	0.30655843
145	0x3e3e8f10	0.18609262
146	0xbeeae872	-0.45880467
147	0xbe93bcd5	-0.28855005
148	0x3e7f214f	0.2491505
149	0x3eca7991	0.39545873
150	0xbdb27d37	-0.08715289
151	0xbec5ab3f	-0.38607213
152	0x3e9b2a70	0.30305815
153	0xbe10300e	-0.14080831
154	0xbd9f232f	-0.077703826
155	0x3dbef391	0.093238
156	0xbef4e244	-0.47828877
157	0x3e71758e	0.2358
158	0x3f087616	0.53305185
159	0x3cd3c369	0.025850015
160	0xbe8306b4	-0.25591052
161	0xbe454fb9	-0.19268693
162	0xbe101b64	-0.14072949
163	0x3eb4090a	0.35163146
164	0x3ee486d1	0.44634107
165	0x3e280944	0.16409785
166	0x3e814020	0.25244236
167	0xbdd93c05	-0.10607151
168	0x3b91bd73	0.004447633
169	0x3e9410f0	0.28919172
170	0x3e8666e1	0.26250365
171	0x3ede9827	0.43475458
172	0xbef75cbd	-0.4831294
173	0xbeaa5198	-0.33265376
174	0xbe8b72c3	-0.27235994
175	0xbefa97c8	-0.48943925
176	0x3e559727	0.20858441
177	0x3f28f237	0.6599459
178	0xbde04a55	-0.10951678
179	0xbe6d197f	-0.23154257
180	0xbe34fce1	-0.1767459
181	0xbe6e4bbe	-0.23271081
182	0xbdb420d7	-0.08795326
183	0xbe3cb907	-0.18429957
184	0x3c37d957	0.011221251
185	0xbea71490	-0.32632875
186	0x3e04347e	0.12910649
187	0x3ca8624d	0.020554686
188	0x3e227bf6	0.158676
189	0xbea4c8b7	-0.32184383
190	0x3e9267c9	0.28594807
191	0x3dcb8352	0.09937157
192	0xbe95676d	-0.2918047
193	0xbe2ee8e4	-0.17081028
194	0x3e383f2a	0.17992845
195	0x3e81e582	0.25370413
196	0xbead7120	-0.3387537
197	0x3ead40cf	0.33838508
198	0xbd6652c2	-0.056231268
199	0x3e8c137b	0.27358612
200	0x3ec1ee60	0.37877178
201	0xbe9e8936	-0.3096406
202	0xbda82195	-0.0820953
203	0x3cfad09b	0.030617049
204	0xbedf3029	-0.4359143
205	0x3e6e6f33	0.23284607
206	0x3e81c42d	0.25344983
207	0x3d1cdee0	0.038298488
208	0xbde0dfb4	-0.10980168
209	0xbe980fa7	-0.29699442
210	0x3e0dcdb8	0.13848007
211	0x3db0d724	0.08634785
212	0x3e2f0efc	0.1709556
213	0x3c5117de	0.012762038
214	0x3d402a6b	0.046915453
215	0x3eaebb0c	0.3412708
216	0x3d289209	0.041154895
217	0x3de0412c	0.109499305
218	0xbeb123d4	-0.34597647
219	0xbde33692	-0.11094393
220	0x3eb79b6d	0.35860768
221	0x3e13b65b	0.14425032
222	0x3db5f5c9	0.088847704
223	0x3eac7a5f	0.33687112
224	0x3e452df7	0.19255815
225	0xbe93cbec	-0.28866518
226	0x3e48a7e6	0.19595298
227	0x3e4d8a85	0.20072372
228	0xbbaa870a	-0.005204086
229	0xbe8d9991	-0.27656224
230	0x3e0322c7	0.12806235
231	0x3e93df6e	0.288814
232	0x3de9bc04	0.11412814
233	0xbe74256e	-0.23842403
234	0x3ea02c9a	0.31284028
235	0xbea45ed9	-0.32103613
236	0xbe216df6	-0.15764603
237	0xbdd492f6	-0.10379593
238	0x3eb1ecdc	0.34751022
239	0xbe3b5625	-0.1829458
240	0x3cf7eb30	0.030263513
241	0xbe9a3719	-0.3012016
242	0x3d9a8b2d	0.07546077
243	0xbeed9fe7	-0.46411058
244	0x3d2ceac7	0.04221609
245	0xbe653e81	-0.22387125
246	0x3d749f00	0.059721947
247	0xbe13c1f9	-0.14429463
248	0x3d838cef	0.06423365
249	0xbeab7759	-0.33489493
250	0x3e2209a5	0.15823992
251	0x3e1a9a77	0.15097986
252	0x3e17e5c1	0.14833738
253	0x3eafbc1b	0.343232
254	0x3ea434d5	0.32071558
255	0xbe0e2c2c	-0.13884038
