saved_models/Ours_GAT/amazon_computer_5000.ckpt (torch, 216975 bytes, 8 tensors)

gat_layers.0.attn_l f4 [1, 8, 8]
0	0xc084f2d9	-4.1546445
1	0x4069398f	3.644138
2	0x406cc0a8	3.6992588
3	0xc09fc666	-4.9929686
4	0x3f8c4e6c	1.0961432
5	0xbffb390b	-1.9626783
6	0xc07dc726	-3.96528
7	0x404296eb	3.0404613
8	0x409ab69a	4.83479
9	0x40546991	3.3189433
10	0xc09da333	-4.926172
11	0xc09c0322	-4.8753824
12	0xc0992fa6	-4.7870665
13	0xc054acf3	-3.323056
14	0x406b699b	3.6783206
15	0x409868f8	4.7628136
16	0xc0925b45	-4.5736413
17	0x405795a6	3.3685088
18	0xc0793c26	-3.8942962
19	0x3ffb44dc	1.9630389
20	0x4092259f	4.5670924
21	0xbfd70a12	-1.6799948
22	0x40b35bca	5.6049547
23	0xc01b0903	-2.422425
24	0xc09b2051	-4.847695
25	0x40938df4	4.6110783
26	0xc0a9483f	-5.290069
27	0xc0a7a37c	-5.2387066
28	0x40822bc0	4.0678406
29	0x405b6398	3.4279537
30	0xc0ae3f7b	-5.445249
31	0x4085090d	4.157355
32	0xbfc0cb16	-1.5061977
33	0x4092f436	4.592311
34	0x40979b6e	4.7377234
35	0xbfc788ed	-1.5588661
36	0xc043cb65	-3.0592892
37	0xc06f2459	-3.7365935
38	0x4086cf0a	4.2127733
39	0xc04d8a29	-3.2115576
40	0xc07e85cb	-3.976916
41	0x40597c96	3.3982291
42	0xc0167528	-2.3509007
43	0xc0aa573c	-5.3231487
44	0x404bc96e	3.1841693
45	0x404133a8	3.0187778
46	0x408e83b0	4.453575
47	0x409c96b7	4.893398
48	0x4062a26b	3.5411632
49	0xc08f8567	-4.4850345
50	0xc05b65f4	-3.4280977
51	0x40a2c05e	5.0859823
52	0x405d7be0	3.4606857
53	0x4094acc7	4.646091
54	0xc025392b	-2.5816143
55	0x40a5f04f	5.1855845
56	0xc01e778c	-2.4760466
57	0xc0224265	-2.5353024
58	0xc09c10eb	-4.877065
59	0xc01d28d8	-2.455618
60	0xc07c8e77	-3.9461954
61	0xc0144f49	-2.3173392
62	0xc0795b4e	-3.8961978
63	0xc0af7cc5	-5.4839807

gat_layers.0.attn_r f4 [1, 8, 8]
0	0xc05f63f4	-3.4904757
1	0xc0302325	-2.752145
2	0x40627067	3.5381105
3	0xbf48e99e	-0.7848147
4	0xbd5ca467	-0.053867724
5	0x3f0aa6dc	0.5416086
6	0xc0733809	-3.800295
7	0xbfa65f94	-1.2997918
8	0x408b4c30	4.35305
9	0x40863f4d	4.195227
10	0xc01b27c3	-2.4243019
11	0xc09e34c2	-4.94394
12	0xbf46a7fd	-0.7760008
13	0x3f83544b	1.0260099
14	0x40938dd4	4.611063
15	0xbf3fe6d0	-0.74961567
16	0x402cb9b4	2.6988344
17	0x4064cf9d	3.5751717
18	0xc03e213f	-2.9707792
19	0x3faae1ac	1.335012
20	0x40129a14	2.2906542
21	0xc00fe59b	-2.248389
22	0x409beb0b	4.872442
23	0xc0812a7c	-4.036436
24	0xbf114c72	-0.5675727
25	0xbf63d009	-0.8898931
26	0xc091a7c9	-4.5517316
27	0xc0ae4859	-5.4463315
28	0x409b532d	4.8539033
29	0x40850f1c	4.1580944
30	0x3ecee57e	0.40409464
31	0xbf91447b	-1.1349024
32	0xbfba6ced	-1.4564492
33	0x408cf8a3	4.405351
34	0x40901512	4.502572
35	0xc02a037f	-2.6564634
36	0xc03843da	-2.8791413
37	0xbffd60cd	-1.9795166
38	0x40026d48	2.03792
39	0xc009815d	-2.1485207
40	0xc07aad69	-3.916834
41	0x405f8541	3.4925082
42	0xc08f2f88	-4.474552
43	0xc048c047	-3.1367357
44	0x404939e0	3.1441574
45	0x408037b5	4.0068
46	0x3eefad1f	0.46811768
47	0xbf31a166	-0.693869
48	0xbf4c819d	-0.79885274
49	0x40375891	2.8647807
50	0xbf533122	-0.82496846
51	0x40b8fcfb	5.7808814
52	0xc0581501	-3.376282
53	0x4084bd02	4.1480722
54	0xc07b5216	-3.9268851
55	0x4066d01c	3.606452
56	0xc07d24e3	-3.9553764
57	0x3ca8dc8f	0.020612983
58	0xbfca700f	-1.5815448
59	0xc057a3b5	-3.369367
60	0xc0152fc3	-2.3310401
61	0x3fca9ce9	1.5829135
62	0xbfaa1fc6	-1.3290946
63	0xc048ce49	-3.1375906

gat_layers.0.bias f4 [64]
0	0x3aef2280	0.0018244535
1	0x3c0d0370	0.008606777
2	0xbc372492	-0.011178153
3	0x3b8c03cf	0.004272915
4	0x3ae423c9	0.0017405684
5	0x3c2f9649	0.010716983
6	0x3ba4f904	0.005034568
7	0x3bedb176	0.007253821
8	0xbc03e008	-0.008049019
9	0xbb720c3d	-0.0036933564
10	0xbb82641f	-0.0039792205
11	0x3c16cf6b	0.009204726
12	0x3bd7844b	0.00657705
13	0xbb6f2f10	-0.0036496557
14	0xbbda6f08	-0.006666068
15	0x3acf1ad8	0.0015800847
16	0x39f40c0f	0.0004654829
17	0x3bda0938	0.006653931
18	0x3bf82e96	0.007573913
19	0xbb516c8a	-0.0031955563
20	0xbb5363d8	-0.0032255556
21	0x3c62da3b	0.0138459755
22	0x3b8dd889	0.0043287915
23	0x3c128a76	0.0089441445
24	0xbab3889f	-0.0013697332
25	0x3c3fe5db	0.011712517
26	0x3ca52922	0.020161215
27	0x3cba0d87	0.022711528
28	0x3b2e2b18	0.002657598
29	0x3a2f34a9	0.0006683567
30	0xbac91307	-0.0015340754
31	0x3bfbb342	0.0076812813
32	0x3baab403	0.0052094474
33	0xbb48f348	-0.0030662585
34	0xbbb48074	-0.005508477
35	0xbb7cb86a	-0.0038562068
36	0x3b0eecc8	0.0021808613
37	0x3a00ae82	0.0004908816
38	0x3c24767b	0.010038014
39	0x39854523	0.00025419248
40	0x3c13bc64	0.009017084
41	0xbb99daba	-0.0046952637
42	0x3c51b74a	0.012800047
43	0x3cbfde75	0.023421505
44	0x39ebf1cd	0.00045002848
45	0xbc159535	-0.009129812
46	0x3b6fbb33	0.0036580085
47	0x3acb64d2	0.0015517718
48	0xbb08d44e	-0.0020878497
49	0x3b73c069	0.0037193543
50	0x3b9ce95a	0.00478856
51	0xbbcc32b6	-0.006231631
52	0xba15d5da	-0.00057157653
53	0xbc8c68cb	-0.017139813
54	0x3c64d3a4	0.013966475
55	0xbc01150e	-0.007878555
56	0x3be46ac1	0.006970734
57	0x3a855ebc	0.0010175328
58	0x3c467547	0.012112922
59	0x3c332d56	0.010936102
60	0xbb6a1f15	-0.0035724093
61	0xbb2fd33d	-0.0026828789
62	0x3c185d85	0.009299641
63	0x3cc9131e	0.024545249

gat_layers.0.fc.weight f4 [64, 767]
0	0x3cc1bf4e	0.023650791
1	0x3e2dc912	0.16971233
2	0x3dd7be9d	0.105344035
3	0xbd4835ea	-0.04887954
4	0xbe5c7095	-0.21527322
5	0x3e0ba1d8	0.13635957
6	0xbe06db18	-0.13169515
7	0xbe984363	-0.29738912
8	0xbe01b33d	-0.1266603
9	0xbe62197a	-0.22080031
10	0x3eb46f15	0.35241
11	0xbda37c0c	-0.079826444
12	0xbd4430e0	-0.047898173
13	0x3e44eef2	0.19231775
14	0xbda6fbb0	-0.08153474
15	0x3e029b1e	0.12754485
16	0x3e00ef3e	0.12591264
17	0xbe057d3f	-0.13036059
18	0x3ce321f7	0.027726157
19	0xbc2849b4	-0.010271478
20	0x3d806e29	0.062710114
21	0x3cdf2a9b	0.027241996
22	0x3da4b81d	0.08042929
23	0x3e5b3552	0.21407059
24	0x3d8b8060	0.06811595
25	0x3e9009fd	0.2813262
26	0x3e83d3b7	0.25747463
27	0xbd27aa26	-0.04093375
28	0x3c7dd486	0.015492564
29	0xbd6d297a	-0.057900883
30	0xbc6eeafa	-0.01458239
31	0x3b80961c	0.0039241444
32	0x3c0e07a6	0.008668816
33	0x3d29b8c4	0.04143597
34	0x3e2af806	0.16696176
35	0xbd41d98f	-0.04732662
36	0x3d962829	0.07331879
37	0xbe43a2ff	-0.19105147
38	0xbd428552	-0.047490425
39	0x3dfcbd8d	0.123408414
40	0xbe715fe0	-0.2357173
41	0xbec33d28	-0.38132596
42	0xbe2ecd52	-0.17070511
43	0x3ec5dede	0.38646597
44	0xbeb450f4	-0.35218012
45	0x3e6b5e10	0.22985101
46	0xbe83c080	-0.25732803
47	0x3b529093	0.003212963
48	0x3ce54e2b	0.027991375
49	0xbc6d0c7d	-0.0144683095
50	0x3e105072	0.14093187
51	0xbe34fc9b	-0.17674486
52	0xbca85888	-0.020550027
53	0xbdc9803f	-0.09838914
54	0xbe62c739	-0.2214631
55	0x3e2314e5	0.1592594
56	0xbce34686	-0.02774359
57	0x3ea0cc8b	0.31406054
58	0x3dddd04d	0.10830746
59	0x3c219615	0.0098624425
60	0x3e44ad0f	0.19206642
61	0xbd73e5b1	-0.059545223
62	0x3de0765c	0.10960075
63	0x3e6f64eb	0.23378341
64	0xbe51c59e	-0.20485541
65	0x3d25360d	0.04033475
66	0xbf131489	-0.5745321
67	0x3e315b3b	0.17319958
68	0x3ea166b1	0.3152366
69	0xbf89e3b9	-1.077262
70	0x3e0b2188	0.1358701
71	0xbe759f21	-0.23986484
72	0x3e2722af	0.16321824
73	0xbd866096	-0.06561391
74	0xbc24ccb8	-0.010058574
75	0x3daf44ac	0.0855802
76	0x3f1c9d53	0.6117756
77	0x3e1ceab6	0.1532391
78	0xbd3b2bf1	-0.045696203
79	0xbc326f42	-0.010890784
80	0x3e39ab9c	0.1813187
81	0xbf077b2f	-0.5292234
82	0xbe285a62	-0.16440728
83	0x3e5ab35b	0.21357481
84	0x3d220a44	0.03956057
85	0x3e86ba1e	0.2631387
86	0x3d8817ed	0.066451885
87	0x3e57baf7	0.21067415
88	0x3e018c73	0.12651233
89	0xbea52b7a	-0.32259732
90	0x3bba8f68	0.005693365
91	0xbe2aa3fb	-0.16664116
92	0x3d860e9e	0.06545757
93	0xbdf0016a	-0.1171902
94	0xbe57805b	-0.21045057
95	0x3df41f77	0.11920064
96	0xbd08af2a	-0.033370174
97	0xbcbd3dcf	-0.023100762
98	0xbd9537c1	-0.07286025
99	0x3e14e14d	0.1453907
100	0xbe97f37e	-0.29677957
101	0xbd145650	-0.036215127
102	0x3c2fdaaf	0.010733291
103	0xbf208f3f	-0.62718576
104	0x3d800de5	0.0625265
105	0x3e777f78	0.24169719
106	0x3e1ba65c	0.1520018
107	0xbc86f6f2	-0.016475175
108	0x3ecadb9b	0.3962067
109	0x3df03519	0.117288776
110	0x3cec7df6	0.028868657
111	0x3e013cba	0.12620822
112	0x3c9379e1	0.018002452
113	0x3e812fa0	0.25231647
114	0x3c83657e	0.016039606
115	0xbd25383b	-0.04033683
116	0xbb29ac4b	-0.0025890048
117	0xbf06b014	-0.52612424
118	0x3cf68654	0.03009335
119	0x3d9a5c51	0.07537139
120	0xbd671817	-0.05641946
121	0xbe93ce00	-0.28868103
122	0x3e5a1136	0.21295628
123	0x3e5a8351	0.21339156
124	0x3e1d2957	0.15347801
125	0xbf07ca5e	-0.5304316
126	0x3c819034	0.015815832
127	0xbf070d8f	-0.52755064
128	0x3c115621	0.008870632
129	0xbe416e23	-0.1888967
130	0x3d847121	0.0646689
131	0xbd78c3f5	-0.060733754
132	0x3d077732	0.033072658
133	0xbe403cf0	-0.18773246
134	0x3e9762e5	0.29567638
135	0xbc720d6e	-0.01477371
136	0xbef74cae	-0.4830069
137	0x3e7c00ab	0.2460963
138	0x3e686d59	0.22697963
139	0xbdf8c69f	-0.12147259
140	0xba025d74	-0.0004973032
141	0xbd97ec0b	-0.074180685
142	0x3d037bda	0.032100536
143	0xbd70eb7f	-0.058818337
144	0xbe0c7f14	-0.13720351
145	0x3e5fafaa	0.21844354
146	0x3c153e28	0.0091090575
147	0xbe1b85fe	-0.15187833
148	0x3e023aaf	0.12717699
149	0xbd502b74	-0.05082269
150	0x3d843894	0.06456104
151	0xbe5e2c00	-0.21696472
152	0x3e460551	0.19337966
153	0x3d5574aa	0.052113213
154	0x3d889d9a	0.06670685
155	0x3d5f7807	0.054557826
156	0x3e4771cb	0.19477002
157	0x3d4a2abd	0.049357165
158	0xbbfa8b71	-0.0076460172
159	0x3d43c6a4	0.04779686
160	0x3dd719ea	0.105029896
161	0x3dafab43	0.085775875
162	0x3d68f5a2	0.05687488
163	0xbc959b4e	-0.018262532
164	0x3e9fd409	0.31216457
165	0xbde66ca6	-0.11251192
166	0x3e6d3124	0.23163277
167	0x3e63e2bb	0.2225446
168	0xbf331d9c	-0.69967055
169	0xbe857cb7	-0.26071712
170	0xbd3b34e2	-0.04570473
171	0xbe4af8f3	-0.19821529
172	0x3d110fc6	0.035415433
173	0xbe10291e	-0.14078185
174	0xbe03e223	-0.12879233
175	0xbd7c0e2e	-0.06153696
176	0xbecdeadd	-0.4021825
177	0xbe7d453d	-0.24733444
178	0x3eb7eff6	0.35925263
179	0xbea8bb72	-0.3295551
180	0xbdbe3188	-0.09286791
181	0x3e489e16	0.19591555
182	0xbd853e4f	-0.06506025
183	0xbe6844ae	-0.22682449
184	0xbe36a550	-0.17836499
185	0xbe10894d	-0.14114876
186	0xbde3a054	-0.111145645
187	0xbb06253c	-0.002046897
188	0x3cc67f2a	0.024230558
189	0x3efbbc42	0.49167067
190	0xbe19c33a	-0.1501588
191	0x3d5c1924	0.053734913
192	0x3e4bd9d9	0.19907321
193	0x3f223237	0.6335787
194	0x3ddf77a4	0.109114915
195	0xbc7f5c24	-0.015585933
196	0x3cb848d5	0.022495667
197	0x3bd7f79c	0.0065907966
198	0xbe4bdd16	-0.19908556
199	0x3b49a309	0.0030767343
200	0x3da855f5	0.0821952
201	0xbeb72c1f	-0.3577585
202	0xbe0a2852	-0.13491943
203	0x3ebe5481	0.37173846
204	0x3c2d361d	0.010571984
205	0xbd5a4061	-0.053284053
206	0xbe70a401	-0.23500063
207	0x3e0e9dfd	0.13927455
208	0x3e339b65	0.17539747
209	0x3e2750cd	0.16339417
210	0x3e11827d	0.14209934
211	0xbe43a6aa	-0.19106546
212	0xbdaf45e1	-0.0855825
213	0xbe00d99f	-0.12583016
214	0x3e30d82f	0.17269967
215	0xbc918cb4	-0.017767288
216	0x3eba4aa9	0.36385086
217	0xbd8ac6f2	-0.06776227
218	0xbd84b0a3	-0.06479003
219	0xbd59b8c8	-0.053154737
220	0x3d480039	0.048828337
221	0x3e026c89	0.12736715
222	0xbc602431	-0.013680504
223	0xbc5cc6bc	-0.013475116
224	0x3ef754f4	0.48307002
225	0x3c0275f6	0.007962694
226	0xbe66f9f4	-0.22556287
227	0xbd94b372	-0.07260789
228	0x3e805022	0.25061136
229	0x3dc5192e	0.09623943
230	0x3d84868b	0.064709745
231	0x3ee457fe	0.44598383
232	0xbcdc84ad	-0.026918733
233	0xbdb195df	-0.08671164
234	0x3e0644fc	0.13112253
235	0xbcd35b9d	-0.02580052
236	0xbe1eadff	-0.15496062
237	0xbdf48bf4	-0.119407564
238	0xbdd07b03	-0.101797126
239	0xbea6d3a6	-0.3258335
240	0xbd9f7ac5	-0.07787088
241	0xbc9d22da	-0.019181658
242	0x3e06381b	0.1310734
243	0xbe8ab326	-0.27089804
244	0xbe72996c	-0.23691338
245	0xbe0777fe	-0.13229367
246	0x3e0df4a0	0.13862848
247	0xbd27c466	-0.040958785
248	0xbee35933	-0.4440399
249	0x3c0b7a5e	0.008513061
250	0xbdae7bae	-0.08519684
251	0x3e0468b8	0.12930572
252	0x3da60724	0.08106831
253	0xbd9592c2	-0.073033825
254	0x3d151f8b	0.036407035
255	0x3e1507c1	0.14553739

gat_layers.1.attn_l f4 [1, 8, 8]
0	0x3e0f8e4a	0.14019123
1	0x3ed15ad0	0.40889597
2	0xbea6de5f	-0.3259153
3	0xbf8547c3	-1.0412525
4	0x3b5c8cf8	0.003365336
5	0xbf27c510	-0.6553507
6	0xbf2c5716	-0.6732038
7	0xbf30b32f	-0.6902341
8	0x3f4d8b46	0.8029064
9	0x3e2f804b	0.17138784
10	0xbee5080c	-0.44732702
11	0xbe9291ca	-0.28626853
12	0xbeaa4962	-0.33259112
13	0x3eda86c8	0.42680955
14	0x3f485b85	0.7826465
15	0x3f8b838e	1.0899522
16	0xbe3d682b	-0.18496768
17	0x3fdd6f92	1.7299674
18	0xbdaad6b4	-0.083417326
19	0x3f241745	0.64098006
20	0x3fcf5b83	1.6199802
21	0xbf80c606	-1.0060432
22	0xbf34db6a	-0.706473
23	0xbec6c8fb	-0.3882521
24	0x3ef9b9d7	0.48774597
25	0xc00a0fe8	-2.1572208
26	0x3f246c52	0.64227784
27	0xbeb74439	-0.35794237
28	0x3e3fb52b	0.18721454
29	0x3fae8ade	1.3636129
30	0xbf77ee9b	-0.9684846
31	0xbf00e6d8	-0.5035224
32	0xbfa8e271	-1.3194104
33	0xbe4dfb54	-0.20115405
34	0x3f59848f	0.84967893
35	0x3e44d618	0.19222295
36	0x3e4e364b	0.20137899
37	0xbee81342	-0.45327193
38	0xbe02016c	-0.12695855
39	0xbe2cd651	-0.1687863
40	0x3f4ea213	0.80716056
41	0x3fb5aece	1.4193971
42	0xbf87e07f	-1.0615386
43	0xbcefae32	-0.029257867
44	0xbdcf98bd	-0.101365544
45	0x3f62d204	0.8860171
46	0x3fb6059b	1.4220461
47	0x3bfe0bbf	0.007752865
48	0xbe9e9016	-0.30969304
49	0xbf58d91f	-0.847063
50	0x3e3641ef	0.17798589
51	0x3edb8c49	0.42880467
52	0xbd7e32b0	-0.062060058
53	0xbfb5ceeb	-1.4203771
54	0xbddecbb7	-0.10878699
55	0x3faad1d2	1.3345282
56	0xbf4ef76e	-0.808463
57	0x3e33f032	0.17572096
58	0x3dce32c1	0.10068274
59	0xbf2f57ec	-0.68493533
60	0xbf3dec7a	-0.7418896
61	0xbeb7a346	-0.35866755
62	0x3f7bbcf2	0.9833518
63	0x3f2599cb	0.64687794

gat_layers.1.attn_r f4 [1, 8, 8]
0	0x402a14a1	2.657509
1	0x3fb7c60b	1.4357313
2	0x3f83c263	1.0293697
3	0x402d8d1e	2.711738
4	0x3fb8e7c2	1.4445727
5	0x3ec9a957	0.3938701
6	0x3fc1b8d2	1.5134528
7	0x3fb37531	1.4020139
8	0xbf8d0960	-1.1018486
9	0x402f52f0	2.739437
10	0x3ffb8cef	1.9652385
11	0x3fa7f58b	1.3121809
12	0x402d8a79	2.7115767
13	0xbfa755b5	-1.3073031
14	0xbfbb38e9	-1.4626743
15	0x3d9c9255	0.07645098
16	0x3df00815	0.117202915
17	0xbff23f78	-1.8925619
18	0x3dacbe15	0.08434693
19	0xbf4d2d7b	-0.8014752
20	0xbfe4d99c	-1.7878909
21	0x3f8a088e	1.0783861
22	0x3f3e92f2	0.7444297
23	0x3f088ccf	0.53339857
24	0xbf02a5ab	-0.5103404
25	0x400deefe	2.217712
26	0xbf3048d1	-0.6886111
27	0x3eb6046c	0.3555025
28	0xbe5f9d8a	-0.2183744
29	0xbfb4be27	-1.412053
30	0x3f833719	1.025119
31	0x3f071c23	0.5277731
32	0x404dcbaa	3.2155557
33	0x3fa934f7	1.3219289
34	0xbf260ad9	-0.648603
35	0x3ebb99ce	0.3664078
36	0x3fec5c11	1.8465596
37	0xc023e8c4	-2.561082
38	0xbfc8371e	-1.564182
39	0xbf411e86	-0.754372
40	0xbf81fe32	-1.0155699
41	0xc00e5e64	-2.2245111
42	0x3fb809de	1.4378011
43	0x3f3283f3	0.6973259
44	0xbccbfda7	-0.024901224
45	0xbfec01f4	-1.8438096
46	0xbfdbd807	-1.7175301
47	0xbf48d496	-0.7844938
48	0xbb727d2d	-0.003700088
49	0x3fb43b66	1.4080627
50	0xbe1c834e	-0.15284464
51	0xbe8c6bb4	-0.2742592
52	0x3e5da636	0.21645436
53	0x3feca4cb	1.8487791
54	0xbe3473e3	-0.17622332
55	0xbfd93532	-1.6969359
56	0x3f5e75c2	0.86898434
57	0xbebdc53e	-0.37064546
58	0x406cabdf	3.6979902
59	0x402887db	2.633292
60	0xbe18e59b	-0.14931338
61	0x3eb52353	0.35378513
62	0xc01426db	-2.3148715
63	0xbf46f524	-0.77717805

gat_layers.1.bias f4 [64]
0	0xbde1aab2	-0.11018886
1	0xbc9bf34b	-0.01903691
2	0xbd7524db	-0.0598496
3	0xbe1bb7c7	-0.15206824
4	0xbca5a53f	-0.020220397
5	0x3e05978f	0.13046096
6	0x3c99c3c2	0.018770102
7	0x3dd64a63	0.10463407
8	0x3daba781	0.08381558
9	0xbe0e4e7c	-0.13897127
10	0x3bbcd7a4	0.005763011
11	0xbd7ba713	-0.06143863
12	0xbdcffab9	-0.101552434
13	0x3cfa5e7e	0.030562636
14	0x3da0a65c	0.078442305
15	0xbe202171	-0.15637757
16	0xbc0a91f9	-0.008457654
17	0xbde4a08a	-0.11163433
18	0x3e3a4630	0.18190837
19	0xb9e9b805	-0.00044578328
20	0xbe016614	-0.12636596
21	0xbd65585a	-0.05599246
22	0xbd44411f	-0.047913667
23	0x3d7d4bf8	0.061840028
24	0xbe08eddc	-0.13371986
25	0x3da180ed	0.07885919
26	0xbcab1d1e	-0.020887908
27	0x3e122bc2	0.14274505
28	0xbdc1bdfc	-0.09460065
29	0x3d2b388d	0.041801978
30	0x3df15e5b	0.11785575
31	0xbd02775a	-0.031852104
32	0xbdf6493c	-0.12025687
33	0x3b7c8b5e	0.0038535218
34	0xbd8c7123	-0.068575166
35	0xbdd6724d	-0.1047102
36	0xbda77852	-0.08177246
37	0x3e1c3541	0.1525469
38	0x3ddb1ef3	0.106992625
39	0xbd860645	-0.065441646
40	0xbde02202	-0.109439865
41	0xbd8b7bf9	-0.06810755
42	0x3c7bb02e	0.015361829
43	0xbdb138af	-0.0865339
44	0xbe0fdb64	-0.14048535
45	0xbe16b6a2	-0.14718106
46	0x3c8bd8aa	0.017071087
47	0x3d3cb1ad	0.046067882
48	0xbd8ea87b	-0.06965729
49	0x3d0e99fb	0.034814816
50	0x3e27f22a	0.16400972
51	0xbdb216a6	-0.08695726
52	0x3c9771b7	0.01848684
53	0x3e29b991	0.16574694
54	0x3cd4f388	0.025995031
55	0x3cf0625f	0.029343782
56	0x3e0094a5	0.12556703
57	0xbcc0d4dd	-0.023539001
58	0xbdbfe129	-0.09369118
59	0xbe23d193	-0.15997915
60	0xbcb751b6	-0.02237783
61	0x3d982c5f	0.07430338
62	0x3d2b786d	0.041862894
63	0xbddab581	-0.106791504

gat_layers.1.fc.weight f4 [64, 64]
0	0x3da89624	0.08231762
1	0xbe345096	-0.17608866
2	0xbee457ef	-0.44598338
3	0x3cd28c82	0.025701765
4	0xbed2df8d	-0.4118618
5	0x3e60768c	0.21920222
6	0xbe0ed9f2	-0.13950327
7	0x3f032e51	0.5124255
8	0x3e91ba9e	0.2846269
9	0xbe555cb3	-0.20836143
10	0xbd827de7	-0.0637167
11	0xbdfb9cb1	-0.12285746
12	0xbe59bf3e	-0.2126436
13	0xbc516171	-0.0127795795
14	0x3dc69329	0.09696037
15	0xbde596fe	-0.1121044
16	0xbe4d34c4	-0.2003966
17	0x3da34b83	0.07973387
18	0x3d2ace58	0.04170069
19	0x3e3ff4ba	0.187457
20	0x3e1527d2	0.14565971
21	0x3f1181bf	0.568386
22	0x3da8826f	0.08228003
23	0xbeca1b21	-0.39473823
24	0x3e6d85b2	0.23195532
25	0xbcbc3333	-0.022973632
26	0xbc2bc69b	-0.010484363
27	0x3d762bc4	0.060100332
28	0x3e99da50	0.30049372
29	0x3d918cba	0.071069196
30	0xbd426583	-0.04746009
31	0xbe2dd10f	-0.16974281
32	0x3dbeeb8d	0.093222715
33	0x3e3f9e78	0.18712795
34	0x3e6311cc	0.22174758
35	0xbf42a76e	-0.7603673
36	0xbcab33b7	-0.020898683
37	0xbe313080	-0.17303658
38	0x3da37680	0.079815865
39	0xbe605187	-0.219061
40	0x3de0f845	0.10984854
41	0xbef0c5fc	-0.4702605
42	0x3efbdca6	0.4919178
43	0x3cc1ed71	0.023672791
44	0xbe6d4562	-0.23170999
45	0x3d102a9a	0.035196878
46	0xbe5ca6fe	-0.21548077
47	0xbec7c407	-0.39016744
48	0x3edb05fe	0.4277801
49	0x3e923062	0.28552538
50	0xbe2138cc	-0.15744323
51	0x3d87c08c	0.06628522
52	0x3da59528	0.0808509
53	0xbdd2c171	-0.10290802
54	0x3e8b77e6	0.27239913
55	0xbc92ca54	-0.017918743
56	0x3c70447a	0.014664764
57	0xbde4eb9e	-0.11177753
58	0xbe0ceb47	-0.13761626
59	0x3f0af793	0.5428402
60	0x3e82ffc5	0.25585762
61	0xbe14160b	-0.14461534
62	0x3e50c05a	0.20385876
63	0x3e045d07	0.12926112
64	0x3e817ad6	0.2528903
65	0xbec8bb9d	-0.39205638
66	0x3dae4e28	0.08511001
67	0x3dedc4b2	0.11609782
68	0x3e20b0cb	0.15692441
69	0x3e086e67	0.13323365
70	0x3e27fd99	0.16405334
71	0xbe02867e	-0.12746617
72	0xbe7ab211	-0.2448199
73	0x3ca7d27c	0.020486109
74	0x3e767994	0.24069816
75	0x3e15d086	0.14630327
76	0x3ea290a1	0.31750968
77	0x3e114fad	0.1419055
78	0xbcd9a01b	-0.026565602
79	0xbefbcb85	-0.4917871
80	0x3da73e57	0.08166187
81	0xbdff25a9	-0.12458355
82	0x3edbcf22	0.42931467
83	0xbd62ccba	-0.055371024
84	0xbe068ec5	-0.131404
85	0xbd195b74	-0.037440732
86	0xbe4914fb	-0.1963691
87	0xbecb5ad4	-0.39717734
88	0x3e5878fd	0.21139903
89	0xbecb4769	-0.3970292
90	0x3e7e7d4e	0.24852487
91	0x3dd67f7a	0.10473533
92	0xbd205022	-0.03913892
93	0xbcc798b6	-0.02436481
94	0x3e838819	0.25689772
95	0xbe502dc3	-0.20329957
96	0xbe151500	-0.14558792
97	0x3bca93a5	0.0061821514
98	0xbcc7e63c	-0.024401776
99	0xbd1e5ef4	-0.038664773
100	0xbe760003	-0.24023442
101	0xbc76762f	-0.015042826
102	0xbe946dcc	-0.28990018
103	0x3e88aee1	0.26695922
104	0x3e39e78e	0.18154737
105	0xbe93e8a5	-0.2888843
106	0xbd908204	-0.070560485
107	0x3e30b361	0.17255928
108	0xbd1d3118	-0.038376898
109	0x3e91f20d	0.28504983
110	0xbdb34c0c	-0.08754739
111	0x3c8cabed	0.017171824
112	0xbdbe4980	-0.09291363
113	0x3e9f34e6	0.31095046
114	0x3eccce87	0.40001318
115	0xbe4f5b71	-0.20249726
116	0xbd107e02	-0.03527642
117	0xbe4cec89	-0.20012106
118	0xbeacc982	-0.33747488
119	0xbe0a20ef	-0.13489126
120	0xbe5d8851	-0.21634032
121	0x3e9c8a93	0.30574474
122	0x3e365c87	0.17808734
123	0xbd0d25f5	-0.034460027
124	0x3ea35509	0.31900814
125	0x3d738e79	0.059462044
126	0xbe1e9c28	-0.15489256
127	0x3e6978c6	0.22799978
128	0x3d6f7c84	0.058468357
129	0x3e768a54	0.24076205
130	0x3ea14c28	0.31503415
131	0xbf155c8e	-0.5834435
132	0xbe075a4c	-0.1321804
133	0xbde417e9	-0.11137373
134	0x3e2cc27c	0.16871065
135	0xbc45926f	-0.012058838
136	0xbe765c49	-0.24058641
137	0xbeb241c6	-0.34815806
138	0x3d855378	0.06510061
139	0x3e4d41fe	0.20044705
140	0x3da87496	0.08225362
141	0xbea0ecac	-0.31430566
142	0x3e37d7d3	0.17953424
143	0x3d25c215	0.040468294
144	0xbee40662	-0.4453612
145	0x3ec3a27a	0.38209897
146	0xbe39d2f6	-0.18146881
147	0x3f0a8f96	0.54125345
148	0xbe33969c	-0.17537922
149	0xbe839c90	-0.25705385
150	0x3be15a35	0.0068772086
151	0x3df59bc6	0.11992602
152	0x3df3bd16	0.119013
153	0xbdfc6c6a	-0.12325366
154	0xbdc6bd2a	-0.09704049
155	0xbcc738db	-0.024319103
156	0xbb92c4a5	-0.0044790083
157	0x3e9a33af	0.30117556
158	0xbd89dff5	-0.067321695
159	0x3ea3db9d	0.3200349
160	0x3e763117	0.24042164
161	0x3e8ff1fe	0.28114313
162	0x3e174168	0.14771044
163	0x3e812a41	0.2522755
164	0x3e4988b7	0.19681059
165	0xbefcdc57	-0.49386856
166	0x3dc62660	0.09675288
167	0xbdec38af	-0.11534249
168	0x3dc0a414	0.094062954
169	0xbead6eb5	-0.33873525
170	0xbe23a1ea	-0.15979734
171	0xbd7cfe86	-0.06176617
172	0xbef05e9f	-0.4694719
173	0xbe7e978f	-0.24862503
174	0x3dd0b530	0.10190809
175	0x3ed4a4e9	0.41532066
176	0xbeba0f56	-0.36339825
177	0x3d2c979d	0.042136777
178	0xbd02a11c	-0.031891927
179	0x3d1f0b21	0.038828973
180	0x3f386abc	0.72037864
181	0x3d9c5960	0.076342344
182	0xbd4bb2f0	-0.049731195
183	0xba49ae04	-0.0007693472
184	0x3d845644	0.06461766
185	0xbc6fe773	-0.014642584
186	0x3e66827a	0.2251071
187	0xbe80dcdf	-0.2516851
188	0x3f0f418c	0.5595939
189	0xbf0b7bc0	-0.544857
190	0x3e038e27	0.12847196
191	0x3cc352ba	0.023843158
192	0xbe20d7c5	-0.1570731
193	0xbed0fc36	-0.40817422
194	0x3ee18e2f	0.4405379
195	0xbd15c046	-0.03656032
196	0xbddee1bc	-0.10882899
197	0x3d4cbcbd	0.049984682
198	0xbefb0bc3	-0.4903241
199	0xbd055382	-0.032550342
200	0x3e04d982	0.12973598
201	0x3e1afc5f	0.15135334
202	0x3bb4d192	0.005518147
203	0xbebda2c3	-0.3703824
204	0x3e253907	0.16135035
205	0x3e0c68af	0.13711809
206	0x3eb055d4	0.34440482
207	0xbe6c4f1c	-0.23077053
208	0xbd932964	-0.07185629
209	0x3d84929c	0.06473276
210	0x3d9a4c14	0.07534042
211	0x3aa8e20d	0.0012884751
212	0x3ec1ce9a	0.37852937
213	0xbf07aaa2	-0.5299474
214	0x3ddc77a2	0.10765006
215	0xbee2ef77	-0.44323322
216	0x3b99b9ef	0.0046913545
217	0xbe2101d0	-0.15723348
218	0xbbd1cb9e	-0.006402447
219	0xbd62a7a1	-0.055335645
220	0x3dda349d	0.106545664
221	0x3e83d65e	0.25749487
222	0x3e4bd581	0.19905664
223	0xbe88df92	-0.2673307
224	0xbf3c4a5d	-0.7355097
225	0x3e9ab451	0.30215696
226	0x3de51abc	0.1118674
227	0x3d81e0ef	0.06341731
228	0x3d8bbfbe	0.06823681
229	0x3c86eabf	0.016469358
230	0xbe3a3690	-0.18184876
231	0x3c968c75	0.018377522
232	0xbebd2557	-0.3694255
233	0xbe249f3e	-0.16076371
234	0xbed57d81	-0.41697314
235	0xbd13fcc5	-0.03612973
236	0x3bb92c82	0.0056510577
237	0x3e557671	0.20845963
238	0xbec78548	-0.38968873
239	0xbdd776a7	-0.10520678
240	0x3dd5ef8f	0.10446083
241	0x3bf141b1	0.0073625674
242	0x3e83bffe	0.25732416
243	0x3e347b40	0.17625141
244	0x3dd288dc	0.1028001
245	0x3e5f575e	0.21810672
246	0xbecab87a	-0.3959387
247	0x3e067d88	0.13133824
248	0xbf4fce1e	-0.81173885
249	0xbdbb866b	-0.091564976
250	0xbe23384f	-0.15939449
251	0xbe920cc2	-0.28525358
252	0xbd817b94	-0.06322399
253	0xbcdbf422	-0.02684981
254	0xbd3bc1aa	-0.04583899
255	0xbd869c4d	-0.06572781
