saved_models/Ours_GAT/pubmed_5000.ckpt (torch, 148623 bytes, 8 tensors)

gat_layers.0.attn_l f4 [1, 8, 8]
000000 24 1a f8 bd cd 87 67 be 37 bc d8 be 67 96 c9 bc
       -0.12114361 -0.22610398 -0.42331097 -0.02460785
000010 d0 ef 8b be 20 a1 ab be 60 29 d8 be 75 b2 a8 bd
       -0.273314 -0.33521366 -0.42219067 -0.08237163
000020 70 2e 1e be a2 da b8 be a6 e1 14 be 27 31 b6 bd
       -0.15447402 -0.36104304 -0.14539203 -0.08896094
000030 51 3b f5 be df 16 5d bd 32 36 ac be 93 86 6d 3e
       -0.47896817 -0.05397689 -0.33635098 0.23195867
000040 b6 05 fc be 91 b7 04 3d d8 db db be 7a 5e 29 be
       -0.49223107 0.032401625 -0.42941165 -0.16539946
000050 1f f2 b1 3c e7 9d 4f be 89 96 c5 3c 7a f9 96 bc
       0.021721898 -0.20275079 0.024119632 -0.018429507
000060 ba 0a 89 3d e3 f4 e5 be b1 ba da be 9f 38 de bd
       0.06691499 -0.44913396 -0.4272056 -0.10850643
000070 5a d1 06 3e 54 a8 b5 3d f0 ae 85 be 4d 9b 0d 3e
       0.13165799 0.08869997 -0.2611003 0.13828774
000080 c2 83 16 be 10 8c 2f be af 5c 03 3e 9b 69 a5 3e
       -0.14698699 -0.17143273 0.12828325 0.32307133
000090 4d e8 ee be 9d 01 66 be 3a 56 87 bd b3 e1 59 be
       -0.46661606 -0.22461553 -0.06608243 -0.21277504
0000a0 41 72 ea be 01 e7 86 bc 60 53 a3 bd 50 40 24 bf
       -0.45790294 -0.016467573 -0.07974887 -0.64160633
0000b0 dd 52 b2 bc 33 1a 23 bc 27 39 e2 3b 48 ca 8f bd
       -0.021768028 -0.009954977 0.0069037857 -0.07021004
0000c0 53 31 82 be 6a 39 21 be d2 81 6d 3e 67 ce 88 be
       -0.25428256 -0.15744558 0.23194054 -0.26719972
0000d0 de 74 89 3e 46 77 ac be 00 85 b3 bd d9 bb 85 3d
       0.26846975 -0.33684748 -0.08765602 0.0652997
0000e0 f3 5b d6 bb 41 4c 62 3e 9a 0a b8 be c3 ee 6d be
       -0.006541723 0.22099401 -0.35945588 -0.23235612
0000f0 b1 24 b3 bd 6f ad 1b be 3a 52 05 bf ab 68 e9 be
       -0.08747233 -0.15202878 -0.5207859 -0.45587668

gat_layers.0.attn_r f4 [1, 8, 8]
000000 00 99 62 bc 75 e0 78 3b 85 e4 15 bd 1f 01 a8 bb
       -0.013830423 0.0037975584 -0.036594886 -0.005127087
000010 4e 3f c1 bc 34 4c ba bc c2 fe 1b bd 1d 27 fd bb
       -0.023589756 -0.022741415 -0.038084753 -0.00772561
000020 0f 58 de bc 09 34 15 bd ee eb d5 bc af 5f 60 bb
       -0.027141599 -0.036426578 -0.026113477 -0.003423672
000030 18 e7 f8 bc 37 63 1d bb 6f ce bf bc 9d 7d 82 3c
       -0.030383632 -0.0024015435 -0.023413865 0.015929038
000040 f1 c6 37 bd 94 e3 ec ba f4 89 23 bd ee c8 22 bc
       -0.04486746 -0.0018073195 -0.039926484 -0.009935601
000050 1e d2 23 3c a8 b8 94 bc 4f 53 b9 39 dc d9 03 bc
       0.009998826 -0.018154457 0.0003534802 -0.008047547
000060 ea 46 e4 3a 6d 30 09 bd 24 c7 33 bd 93 81 60 bc
       0.0017416154 -0.033493448 -0.043891087 -0.013702768
000070 c6 93 60 bc f3 bb c2 3c eb 15 d6 bc 78 39 88 3c
       -0.013707107 0.023771262 -0.026133498 0.016628966
000080 cf c2 57 bc 80 9f c2 bc f9 d5 0d bc 54 e5 36 3d
       -0.013169005 -0.023757696 -0.008656972 0.044652298
000090 59 e5 1c bd 6c 9c 2d bd b1 1b d6 3b 33 5d 83 bc
       -0.03830466 -0.042385504 0.006534063 -0.016035652
0000a0 1a dd 3e bd a8 14 41 3b 9f 62 b3 bb d6 e1 12 bd
       -0.046597578 0.0029461775 -0.005474403 -0.035859905
0000b0 c5 81 7b 3c 3d 2f 0f bc e5 cd 04 bb 6a 3b 3a bc
       0.015350764 -0.00873929 -0.0020264324 -0.0113667045
0000c0 cd 91 1d bd 60 29 82 bc 8f a9 04 3d 60 4a 38 bd
       -0.038469125 -0.01588887 0.032388266 -0.044992805
0000d0 00 44 e9 3c 17 62 0b bd cc f8 dc 3b 7c 43 0e 3d
       0.028474808 -0.034029093 0.006743526 0.034732327
0000e0 36 97 16 bd f7 5c 0c 3d 6b 72 43 bc 7f c2 97 bc
       -0.0367653 0.034268346 -0.011929135 -0.01852536
0000f0 d4 89 ac ba e6 73 62 bc 77 41 53 bd 17 79 e5 bc
       -0.0013163635 -0.013821578 -0.051576104 -0.028011842

gat_layers.0.bias f4 [64]
000000 c1 63 a3 3a fc c2 22 3a 62 20 bb 3a 7d 01 79 39
       0.0012465642 0.00062088645 0.0014276619 0.00023747045
000010 e9 ca 35 3a b1 61 81 3a 91 ad 9e 39 e7 e2 91 3b
       0.0006934838 0.0009871033 0.00030265425 0.0044520977
000020 29 cf 75 3a 45 2c 54 3b a6 b4 2c 3b ef 91 62 b9
       0.00093768776 0.003237502 0.0026352792 -0.00021607404
000030 09 40 6f 3b 26 9d 32 3b 41 01 a0 3a e2 c4 38 3a
       0.0036506674 0.0027254312 0.0012207405 0.0007048381
000040 48 da 5c 3b 48 f1 be 3a dc 88 d1 3a 6a 3e 16 ba
       0.0033699442 0.0014567757 0.0015986222 -0.00057313463
000050 f9 9f 29 ba 7b d6 17 3b 51 63 20 b9 4a e2 9d 3a
       -0.0006470676 0.0023168612 -0.00015295787 0.0012045589
000060 1d 78 0d 3b 14 25 e4 3a b6 e4 0d 3b f9 45 6b b8
       0.0021586486 0.001740607 0.0021651215 -5.6093533e-05
000070 69 ef 88 ba 6e 1d 0e bb ca ed ba 39 cd 66 c6 3a
       -0.0010447326 -0.0021685022 0.0003565385 0.0015136838
000080 da 5e 1d 3a 41 25 41 3a bd a5 e0 3a 28 ff 75 3a
       0.00060032087 0.0007367917 0.0017139238 0.00093840295
000090 dd c3 6d 3b e3 b0 31 3b 1e 13 12 3b 76 1a 0c 3b
       0.0036280074 0.002711349 0.0022289227 0.0021378077
0000a0 3e 3f f0 3a 74 00 1b 3b 1c 9d 86 3a 9c 94 ae 3a
       0.0018329395 0.0023651393 0.0010270211 0.0013319436
0000b0 8f c7 0e 3b 67 2b ee 39 5f 4b 1d 3b c1 97 6e 3b
       0.0021786427 0.00045427235 0.0024001224 0.003640637
0000c0 25 16 f0 3a 3f c5 02 3b 0f f0 59 3b 73 3a be 3a
       0.0018317146 0.0019953994 0.0033254658 0.0014513269
0000d0 36 45 2c ba d0 dd 74 3b a3 f1 17 ba 7d 23 0d 3a
       -0.00065715925 0.0037363656 -0.00057961995 0.00053840113
0000e0 ef 1f 07 3b 15 b8 08 3b a4 6c f8 3a 8b d7 91 3b
       0.00206184 0.0020861675 0.0018953276 0.0044507436
0000f0 23 0e f0 3a ed 55 a0 39 75 5d a7 3b 7b c4 83 3a
       0.001831476 0.00030581598 0.0051075765 0.0010053063

gat_layers.0.fc.weight f4 [64, 500]
000000 de 46 37 bd 8c f1 95 3d 17 2e 65 bd a6 63 bf bd
       -0.04474532 0.07321462 -0.055952158 -0.09345178
000010 a5 9d b5 3d 84 ad ed bd a3 ed c8 3d 9c df b4 bc
       0.08867959 -0.11605361 0.098109506 -0.022079282
000020 2d 03 1a bd e7 a6 f7 3c d5 2e 3a 3d 6c fe 68 bd
       -0.037600685 0.030230952 0.04545482 -0.05688326
000030 e8 cd 82 3c 4e e2 a3 3d 5e 15 e5 bb 25 0b 24 3d
       0.015967324 0.080021486 -0.0069910726 0.04004969
000040 2b 8e 3d 3d ef 65 f0 bc 57 1f bf bd 7d ba c1 bb
       0.04627816 -0.02934548 -0.093321495 -0.0059121237
000050 f0 6e d1 bd 19 70 39 bd ca 34 02 bd 3f 85 68 bd
       -0.10226238 -0.04527292 -0.031788625 -0.0567677
000060 8d 63 d8 bd 27 86 85 bc 82 29 63 3c 26 44 ed bc
       -0.10565863 -0.01629932 0.013864877 -0.02896316
000070 f4 3b 82 3c 98 62 0e 3d 60 9f a2 bb ee 57 02 bd
       0.015897729 0.034761995 -0.0049628466 -0.031822138
000080 35 46 51 bb a0 72 53 3d f7 21 69 3c a0 0c 71 3c
       -0.0031932716 0.051622987 0.014229289 0.014712483
000090 dd 79 27 be 7b eb 84 bd 0a dc 7c bc 2c 7d 0a be
       -0.16355081 -0.06490227 -0.015433321 -0.13524312
0000a0 f5 09 c9 bc 97 bb 29 3a 2e 23 0d bd cc 6d 8d 3c
       -0.02454088 0.00064747914 -0.034457378 0.01726427
0000b0 3d 0a a6 bd 84 eb 5b 3d cb 55 2b 3d ca b2 66 3d
       -0.081074215 0.053691402 0.041829865 0.05632285
0000c0 aa 0d bb bb fa a1 47 3b c1 63 dc bb 12 3a 30 bc
       -0.005708416 0.0030461536 -0.006725759 -0.010756033
0000d0 d2 a9 a3 bc b8 5d 06 be 77 87 c7 bd a9 1e c6 bc
       -0.019978438 -0.13121688 -0.09742635 -0.024184542
0000e0 38 92 e1 bc 1b 43 a3 3c 7d 6e 9a 3d 67 1a bc bc
       -0.027535543 0.01992946 0.07540605 -0.022961808
0000f0 ba 73 fe bc e2 1a f7 bc a1 3b de 3c c7 12 e9 3c
       -0.031061042 -0.030164186 0.027128043 0.028451337
000100 f7 34 e1 3c b2 f3 15 3c b7 71 99 3c b8 3e 95 bd
       0.027491076 0.00915234 0.018730981 -0.07287353
000110 2c 9b 11 3d 1d 85 a5 3d 89 f4 bd 3d b2 70 b7 bd
       0.035548374 0.0808203 0.09275157 -0.08957042
000120 f5 8b 23 bd 1e 2a e9 3c 6e fd d7 3c 89 b1 b2 bb
       -0.039928395 0.028462466 0.026365962 -0.0054532927
000130 6e d5 5c 3c 00 7b 02 3d 1c 08 5f bc 09 91 a5 bd
       0.01347862 0.031855583 -0.013612773 -0.08084304
000140 9c 3f 4b 3d 86 b8 14 3d 4e bb 38 3c 1c f2 bc bc
       0.04962121 0.036308788 0.011275126 -0.023064665
000150 84 ac 74 3c 22 20 d8 bd 19 90 fa bd be b4 bb bc
       0.014933709 -0.10553004 -0.12234516 -0.022913333
000160 6f 00 de bc 2d 9f 28 bd 04 66 8f bc c2 90 48 3d
       -0.027099816 -0.041167427 -0.0175047 0.048966177
000170 60 84 ed bd d8 c2 67 3b 0d 36 4a 3d 4b ea ce bc
       -0.11597514 0.0035363939 0.049367953 -0.025258204
000180 5d 3b 6b 3d 48 25 26 3d 8c 47 4c bb 55 37 a8 3b
       0.05742966 0.040562898 -0.0031170575 0.005133549
000190 69 0d 86 3c ac 94 15 3d 00 bb 79 3d de 43 a9 3c
       0.016363816 0.036518738 0.060969353 0.020662244
0001a0 9f 0e 82 bd 44 56 bf bc cf ca 58 bc 78 8e fe 3b
       -0.06350445 -0.023356564 -0.013231947 0.0077684484
0001b0 58 53 31 be 3d 42 93 bc 46 f4 b2 bd bf 36 31 3d
       -0.1731695 -0.01797592 -0.08737998 0.0432651
0001c0 57 13 35 3c 2d d1 7f 3c d6 a4 73 3c de 60 a1 3c
       0.011051974 0.015613836 0.014870843 0.01969951
0001d0 7c 01 0d 3d f3 36 5c bd 7e 0b df ba ef 2f bf bd
       0.034425244 -0.05376334 -0.0017016975 -0.093353145
0001e0 12 23 9c bd a3 1f c9 bd af ee 2b be b1 9d 78 3d
       -0.07623877 -0.09820487 -0.1679027 0.06069726
0001f0 ff 22 53 3d c5 58 99 bd 26 90 96 bd 15 f9 bd bd
       0.051547047 -0.074876346 -0.07351713 -0.09276024
000200 52 6b 7f bd 1e 1c c1 bc 68 9c 07 be 67 f4 49 3d
       -0.062358208 -0.023572978 -0.13243258 0.049305346
000210 2f 42 90 bd 31 47 a9 bc 12 0c 7d bd 36 57 0a bc
       -0.070438735 -0.02066383 -0.06177909 -0.008443644
000220 23 54 9e 3b 79 18 3c bd d3 6d 24 bd f4 ff fb 3c
       0.004831807 -0.045921776 -0.0401438 0.030761696
000230 15 dd 8d bd 07 39 ef 3c e2 00 89 bd 08 39 bc 3c
       -0.06926934 0.029201997 -0.066896215 0.022976413
000240 e8 3c 9a bb 4c a6 42 3b 91 20 96 bd 0a 75 13 bd
       -0.0047069676 0.0029701171 -0.0733043 -0.03600029
000250 7b 42 fa 3a f4 5a 64 bc c7 6f 01 3c 3e 35 7d 3c
       0.0019093299 -0.013937701 0.007900185 0.015454588
000260 9d bf 5b 3d 3b 9a 5c bd ee a8 0a bc 31 86 42 bc
       0.053649534 -0.053858023 -0.008463128 -0.011872814
000270 9d 03 1c 3c 8c 29 5d 3c 91 2b 4c bd 1d b9 dd ba
       0.009522346 0.013498675 -0.049846236 -0.001691613
000280 39 9e 1a 3e 1f b8 a0 3a 7f 77 b6 3d b2 81 07 bd
       0.1509942 0.0012261904 0.08909511 -0.03308267
000290 3b 17 3b bb 1d 46 8d 3d 4e c3 84 bd 3c e0 2c 3d
       -0.0028547782 0.06898139 -0.06482564 0.042206034
0002a0 83 d4 2d 3d a0 11 2e bd 80 48 af 3b b5 10 34 3e
       0.042438995 -0.042497277 0.005349219 0.17584498
0002b0 f9 13 08 3d db 0d 25 3c ef b9 71 3d 59 51 e7 3c
       0.033222172 0.010074104 0.05901521 0.028237032
0002c0 cd 9c 49 ba a9 5c 54 be 87 41 56 bb 2f 41 46 3d
       -0.00076909066 -0.20738472 -0.0032692866 0.048402008
0002d0 6c 47 cb 3c fb 8d 92 3b d6 a6 1d bd cf 70 f6 3c
       0.02481433 0.004472492 -0.038489185 0.030083088
0002e0 c1 0d 72 bd fb 6e ba bc 6c a0 7d bc 75 9a 88 3c
       -0.059095148 -0.022757998 -0.015480142 0.016675213
0002f0 f4 6b 32 3d 29 51 bc bc ef dc 87 3c 59 bc c0 bc
       0.043559983 -0.022987919 0.016584842 -0.023527311
000300 be 04 3a bd 7f d0 1c 3c 94 e4 e8 bc 2f 98 43 3d
       -0.04541468 0.009571194 -0.028429307 0.047752555
000310 60 c6 94 3c 1c b5 99 bc 80 9b 52 bd c1 2f 99 bc
       0.018160999 -0.018763117 -0.051417828 -0.018699529
000320 9f 2d 64 bd dc 30 24 3d 34 74 75 3d e6 cb 8a bd
       -0.05570757 0.04008566 0.059925273 -0.06777172
000330 75 a8 03 bc fa cf 83 bd e5 68 e2 bd 91 40 55 3d
       -0.008035769 -0.06436153 -0.11055163 0.05206353
000340 e9 f1 29 bd f4 7a 10 3d de 59 85 3d 43 79 9e 3c
       -0.04149047 0.035273507 0.065112814 0.019344931
000350 8c 63 67 3d a5 cf b5 bc b4 fe 02 be 13 55 ec bd
       0.05649142 -0.02219374 -0.12792474 -0.11539664
000360 3a 4a 7f 3c bb 7f 88 bd b2 b1 59 bc 67 cd 52 3c
       0.015581662 -0.06664988 -0.013286995 0.012866355
000370 f8 69 63 3d c3 3e a0 bd c3 80 0a bd 9d 56 09 bd
       0.05552098 -0.07824471 -0.033814203 -0.033529866
000380 9b 50 89 3c 64 78 42 bd 54 b4 1f 3d 60 e9 2d bd
       0.016762068 -0.047478095 0.038990334 -0.042458892
000390 c5 67 af bd 2d ea f5 bc f9 66 46 3d 9d 89 d9 bc
       -0.08564714 -0.03001889 0.048438046 -0.026554877
0003a0 ca 9a 44 3d 56 f2 37 3b de e5 a6 3c ff d2 9b 3d
       0.04799918 0.0028068027 0.020373281 0.07608604
0003b0 03 d7 94 bd c5 8f 93 bd ba eb 80 bc 97 32 66 3d
       -0.07267573 -0.07205156 -0.015737403 0.05620059
0003c0 55 3e 57 3d ef 95 bc 3c e9 2a 87 3c 3a c2 22 3c
       0.05254968 0.023020713 0.016499953 0.0099340025
0003d0 e6 8a 9f bd 89 41 37 3c 79 58 c7 3c 23 af f1 bb
       -0.07790165 0.011185058 0.02433418 -0.0073756143
0003e0 40 b5 4f bd a8 3a c6 bc d6 be 0d 3d 74 f1 5b 3c
       -0.050709963 -0.024197891 0.034605823 0.013424266
0003f0 63 01 39 bd 71 45 aa 3d b3 c1 11 3d 58 55 5c 3c
       -0.045167338 0.08314026 0.035585117 0.013448082

gat_layers.1.attn_l f4 [1, 8, 8]
000000 54 af 0a 3d 8f 6a d9 bb db ed e1 bd b5 e5 5f bd
       0.033858612 -0.006635017 -0.110316955 -0.054662425
000010 f6 a4 f2 3d 7c c6 69 3d 6f 2f a5 3d 35 f6 0a be
       0.1184787 0.057074055 0.08065688 -0.13570483
000020 ee bc 2b 3d 68 e0 bb 3d c1 ea 99 3c 05 04 56 3d
       0.041928224 0.091736615 0.018788697 0.052249927
000030 55 6c 0e bd 79 f9 59 3e 22 d4 d5 bd 70 9e 68 3d
       -0.034771282 0.21286573 -0.10440852 0.056791723
000040 f9 f0 7d 3c dd 00 34 be fb f2 15 3e 71 fd ae bd
       0.015499347 -0.17578454 0.14643471 -0.08544434
000050 9c 00 25 bb 1b 5c cf 3d f4 28 b7 bb f5 1e 84 3d
       -0.0025177365 0.101249896 -0.005589599 0.06451217
000060 a2 8c 38 bc b1 92 84 3d a4 1b 95 3c 38 98 83 bd
       -0.011263998 0.06473292 0.018201657 -0.06425518
000070 ee 8c 65 3c a7 f5 ec bd e2 00 1f be 06 9a e2 bd
       0.014010651 -0.11570292 -0.1552768 -0.11064534
000080 b2 12 51 3d a9 5b 24 3e 62 21 1e 3d db d5 0f 3e
       0.05104322 0.1605059 0.038606055 0.14046423
000090 ea 0d 65 3d 0a 16 d6 bc 24 95 3e bd 0d 0b 25 3c
       0.055921473 -0.026133556 -0.04652895 0.0100734355
0000a0 0e e5 9e bd 52 55 a6 bd 4a 08 5c bd 69 c6 ec bb
       -0.077585325 -0.08121742 -0.053718843 -0.007225801
0000b0 40 e2 39 3e 53 47 bc 3d 9e 81 5c bd cd ae 36 3d
       0.18152714 0.091932915 -0.05383455 0.044600297
0000c0 36 60 ec bd 27 99 06 be b4 b4 98 bd 80 cb 35 be
       -0.11541788 -0.1314436 -0.074563414 -0.1775341
0000d0 fa d9 0b bd 39 c0 08 bd 9e 6d 35 3c e9 71 52 bc
       -0.034143426 -0.033386443 0.011073498 -0.012844541
0000e0 4f 4c 3e 3e 3f b6 07 bd 9c 47 aa 37 fc c2 5d bd
       0.18583797 -0.033132788 2.0298925e-05 -0.05414103
0000f0 b6 11 13 3d d5 c0 b3 bc bf 6c 0c be 6b 91 d7 bd
       0.035905562 -0.021942535 -0.13713358 -0.10525783

gat_layers.1.attn_r f4 [1, 8, 8]
000000 e1 19 0c bd ff 30 d5 3b 7e 34 e2 3d 15 97 61 3d
       -0.034204368 0.006506085 0.11045168 0.055075724
000010 12 f1 f3 bd 57 08 6b bd a3 e8 a4 bd 17 fe 0a 3e
       -0.11911215 -0.057381 -0.080521844 0.1357349
000020 52 df 2b bd c9 ab bc bd 3d 0b 98 bc 11 cd 55 bd
       -0.04196102 -0.09212453 -0.018560046 -0.05219752
000030 36 11 0e 3d ee ec 59 be e5 e4 d5 3d 13 1d 66 bd
       0.034684382 -0.21281788 0.10444049 -0.05618007
000040 ba f1 77 bc 5f 02 34 3e 46 58 16 be d8 b2 af 3d
       -0.015133316 0.1757903 -0.14682111 0.085790336
000050 3a 9f 1d 3b 61 76 cf bd 78 3a b6 3b 01 71 84 bd
       0.0024051205 -0.10130001 0.0055611692 -0.06466866
000060 08 15 34 3c b8 d3 83 bd 52 43 99 bc 70 cf 82 3d
       0.010991342 -0.064368665 -0.018708859 0.06387222
000070 d3 88 68 bc 67 24 ed 3d 19 6a 1f 3e 5b 63 e2 3d
       -0.014192778 0.11579209 0.15567817 0.11054107
000080 0f 33 51 bd 76 06 24 be 79 99 1c bd cf 05 10 be
       -0.051074084 -0.1601809 -0.0382323 -0.14064716
000090 c1 bb 63 bd b5 f7 d7 3c de 3b 40 3d 14 30 25 bc
       -0.055598978 0.026363233 0.046932094 -0.0100822635
0000a0 bd 69 9e 3d 6c f7 a4 3d b8 67 5c 3d 5a 0e e8 3b
       0.07735012 0.080550045 0.05380985 0.007081789
0000b0 c9 c5 39 be 87 aa bb bd b3 cd 5b 3d 6b b5 36 bd
       -0.18141855 -0.09163385 0.053662967 -0.044606607
0000c0 4a a0 ec 3d ac 6c 06 3e 72 0d 9a 3d 0b 6e 35 3e
       0.1155401 0.13127393 0.07522096 0.1771776
0000d0 ec 36 0c 3d a5 81 08 3d d7 84 33 bc d2 37 52 3c
       0.034232065 0.033326764 -0.010956964 0.012830691
0000e0 64 98 3d be 1a 4a 07 3d a8 d2 b1 38 03 69 5c 3d
       -0.18515164 0.033029653 8.4792555e-05 0.053811084
0000f0 1c d8 11 bd b8 8a b5 3c b9 20 0c 3e 65 2d d8 3d
       -0.03560649 0.022160873 0.13684358 0.10555533

gat_layers.1.bias f4 [64]
000000 09 95 57 3c 34 0b ad bc 5a 26 17 bc 1b 6a bb 3b
       0.013158091 -0.021123506 -0.009225452 0.005719436
000010 b8 9f 62 3c 23 9c 0a bd a5 ea c2 bc 2a 8d a1 3c
       0.013832025 -0.03384031 -0.023793528 0.019720633
000020 15 c8 a1 bc 6a 0d 92 bc 2a 96 b2 bc 25 04 d4 3b
       -0.019748727 -0.017828662 -0.02180012 0.0064702206
000030 b3 fc 1a 3b ef 79 28 bd af a3 e8 3b 5f 4e 39 3c
       0.0023649156 -0.04113191 0.0070995907 0.011310189
000040 25 51 0a 3b 7b 1c f5 3c 1c 3d f7 3b eb 85 bb 3c
       0.0021105495 0.029920807 0.0075451266 0.022891006
000050 58 bb 8e 3b 88 37 07 bd 1f 00 53 bc b4 d0 93 bc
       0.004355829 -0.033011943 -0.012878447 -0.018043853
000060 23 23 e6 bc 9b 88 8e 3c f6 9a 39 3c d6 9c 1a 3d
       -0.028092926 0.017399123 0.0113284495 0.037747227
000070 c7 5e 93 bb dc dc aa 3c be c1 11 3d 93 a5 22 3d
       -0.0044973823 0.020857267 0.035585158 0.039708685
000080 0a e4 3a 3c 18 bf 9f bc 5f 76 8f bc f8 d9 19 bd
       0.011406908 -0.0195003 -0.017512498 -0.037561387
000090 1c 8a 11 bd a9 83 73 bc 77 d2 e5 3c 8b 8a 72 3a
       -0.035532102 -0.014862933 0.028054459 0.0009252212
0000a0 c7 20 48 3d 64 83 a8 3c b1 a4 35 3b 43 af ee 3c
       0.048859384 0.020570464 0.0027716572 0.029136306
0000b0 c2 c1 2a bd 83 9f a3 bc bb 42 c5 3c a0 38 f5 3b
       -0.041688688 -0.019973522 0.024079671 0.007483557
0000c0 99 e2 c7 3c fb c3 10 3d 84 5c 88 3c 75 8a 02 3d
       0.024400042 0.03534315 0.016645677 0.031870324
0000d0 1e 02 29 3b 12 64 18 bc b0 68 b9 bc d4 ad 06 3b
       0.0025788615 -0.009301202 -0.022632927 0.0020550387
0000e0 90 6b 1f bd 47 69 0f 3c f5 df 5c bc 45 67 9c 3c
       -0.03892094 0.008753127 -0.01348113 0.019092211
0000f0 6f 6a ec bc c0 95 be ba b4 6c 5e 3d bb 11 3a bb
       -0.028859345 -0.0014540479 0.054302886 -0.0028391916

gat_layers.1.fc.weight f4 [64, 64]
000000 ad 0b ad 3d 6b ed 83 3d d3 e1 04 3e d0 07 86 be
       0.084494926 0.06441768 0.1297677 -0.26177835
000010 be cc d7 3d 13 42 a5 3c e3 1a a3 3d ca 39 9d 3d
       0.10537098 0.020173108 0.079641126 0.07677038
000020 66 09 9a 3e fa 03 ff 3c 0e 00 48 be 6a 1c 10 bd
       0.30085295 0.031129826 -0.19531271 -0.035183348
000030 fa 8a 13 3b c2 6d 2a be 96 d4 d4 3d e6 8a 0e 3e
       0.0022513256 -0.16643432 0.1039211 0.13920173
000040 33 9c 3d be eb a4 0a 3c e8 e5 91 3d ba 88 68 bd
       -0.18516617 0.008462171 0.07123929 -0.056771018
000050 e2 76 2c 3e 0b ee 33 bd 50 62 8a be 1c 0e bc bd
       0.16842225 -0.043928187 -0.2702813 -0.09182379
000060 5c 17 84 3d 52 a9 8d 3d 86 9b df 3c e2 01 a5 3e
       0.06449768 0.06917061 0.027295839 0.32228
000070 67 28 9e 3d 75 d7 09 3e 70 53 01 be f7 78 f3 3d
       0.0772255 0.13461097 -0.12629485 0.118883066
000080 a3 f4 e4 bc 62 11 19 3e b4 00 fb 3d b5 93 c1 3d
       -0.027948683 0.14948037 0.122559935 0.09452001
000090 06 a4 f2 3d e8 d0 68 be 34 76 10 be 2f b9 aa bd
       0.11847691 -0.22735941 -0.14107591 -0.08336102
0000a0 c9 36 42 bd 54 0e 4b 3e 81 97 50 3c 8e 56 af 3d
       -0.04741553 0.19829684 0.012731434 0.08561431
0000b0 90 a4 1b 3e 6d e6 9d 3d 4f da fd bd fd c1 7b be
       0.15199494 0.07709966 -0.12395155 -0.2458572
0000c0 29 bb 96 3a c3 e1 d9 3d 34 bb e8 3d d0 34 80 be
       0.001149987 0.10638764 0.11363831 -0.25040293
0000d0 ae 03 5f 3e 6c 05 06 3d f3 bb 76 3d 58 3a c5 bc
       0.21778747 0.032720014 0.060237836 -0.024075672
0000e0 47 f7 ba bd 23 ab 95 3e 86 54 4f 3c 97 fa 6c 3c
       -0.09129196 0.2923213 0.012654429 0.014464042
0000f0 93 91 dd 3b c6 9c b3 3c 48 33 29 be 5f 71 65 3d
       0.0067617386 0.021925341 -0.16523468 0.056016322
000100 a5 58 8f be 60 09 2a be 53 60 9b 3b 13 ab e4 bd
       -0.27997318 -0.16605139 0.0047417074 -0.11165442
000110 e8 79 25 be 6b e0 a9 3d 04 30 15 3d 88 c1 be bb
       -0.16159785 0.082947575 0.036422744 -0.0058214106
000120 85 f5 27 bd 94 05 af bd 57 60 31 3d 91 77 77 be
       -0.04100563 -0.08545986 0.043304767 -0.24166705
000130 ac d2 cc 3d 83 b6 1f 3d 0b 9c a1 3d ab 28 5d 3e
       0.1000112 0.038992416 0.07891091 0.21597545
000140 f5 2e f5 3d f6 86 04 3e ec 15 83 be 11 e3 de bb
       0.11971847 0.12942109 -0.25602663 -0.006801971
000150 b3 a6 74 3d b1 69 ef 3d 12 12 22 be 98 42 29 3d
       0.05972929 0.11690081 -0.15827206 0.041323274
000160 59 01 8d 3d 5e 06 0e 3e 05 b1 36 be aa 52 9e bd
       0.06885023 0.13869616 -0.17840965 -0.07730611
000170 50 28 0f be 46 db bb bd 18 26 c6 bd 2a 89 15 3e
       -0.13980222 -0.091726825 -0.096752346 0.14603105
000180 c4 72 76 be 2d 82 04 be 8a 44 b9 3d 40 d6 d5 3d
       -0.24067217 -0.12940283 0.09046276 0.104412556
000190 c4 3b c1 bb af 3d 95 bd b0 cf 2c 3e 3d 83 e9 3d
       -0.005897017 -0.07287156 0.16876101 0.11401985
0001a0 1d 18 d8 bc a4 62 36 bd 06 40 31 be e0 87 91 bc
       -0.026378686 -0.044527665 -0.17309579 -0.017764986
0001b0 7e 4e e0 3c fc 87 6e be c8 12 dd 3d 59 be ee bd
       0.027381178 -0.23294061 0.10794598 -0.116574
0001c0 5b 8e 22 3e 60 68 e2 bd 28 81 8d 3e 05 53 82 3c
       0.15874617 -0.11055064 0.276376 0.015908727
0001d0 31 57 9b bd 58 d5 da 3c 44 f2 05 3e 4d 23 5d bd
       -0.0758499 0.026713058 0.13080698 -0.053988744
0001e0 55 47 0e be 23 5c 3e 3e 3d 10 60 3b 3a a7 8b 3b
       -0.13894399 0.18589835 0.0034189366 0.0042618783
0001f0 bc d3 a3 3d b3 92 36 3e ab df c7 3d 50 e4 f2 bd
       0.079993695 0.17829399 0.09759458 -0.118599534
000200 69 d7 a6 bc 6d 96 1b be 93 b0 b1 bd 40 45 86 3e
       -0.020366387 -0.15194102 -0.08676257 0.2622471
000210 15 94 3b 3d 11 6d 94 3d 38 a0 3d 3e ec d6 91 3d
       0.04579552 0.07247365 0.1851815 0.07121071
000220 5a b1 5a be 1f 8e 9e bd 79 e8 b2 bc 3b 0b b3 3d
       -0.21356717 -0.07741951 -0.021839367 0.087423764
000230 ab 12 b6 bc da c8 38 be 74 49 45 3e c1 42 17 3c
       -0.022225698 -0.18045369 0.19266301 0.009232224
000240 92 5e 7a bd 0d a8 87 3e 28 bc 84 3d 9e fc 84 bd
       -0.061125346 0.264954 0.064812005 -0.064934954
000250 c5 d1 c1 3d 41 1b b5 3d 70 70 61 3e 63 56 fb bc
       0.094638385 0.08843089 0.22015548 -0.03068084
000260 a3 8b 74 be 5d ff 3f 3b 74 fc 30 bd c3 6a 11 be
       -0.23881392 0.0029296495 -0.043209508 -0.14200883
000270 56 58 53 3d 2e f5 0a 3e 48 7f cb 3d 6e 3c 75 3e
       0.051597916 0.13570091 0.09936386 0.23948833
000280 b5 5d 8f 3c c3 0f 5b be 0c e7 ca bc 39 d2 a1 bd
       0.017500738 -0.21392731 -0.024768375 -0.07901425
000290 3c 2b cb 3d e8 ca 12 be 78 c3 25 be d5 d7 a7 3d
       0.09920356 -0.14335215 -0.16187847 0.081954636
0002a0 8e cc 09 bd 6d 1b 92 be 0b 52 95 3d 28 88 b9 bd
       -0.033642344 -0.2853655 0.07291039 -0.09059173
0002b0 20 ac 98 3d 02 c8 44 bd 40 24 3d be eb f4 b3 bd
       0.07454705 -0.048042305 -0.1847086 -0.08786949
0002c0 08 60 21 bb b7 5c 3a be 0f 06 11 be 56 ec d7 ba
       -0.002462389 -0.1819943 -0.14162467 -0.0016473632
0002d0 ac 1f 9f 3d bc 9e fa bd bf ea 7f 3e 4c c0 16 3e
       0.07769713 -0.122373074 0.24991892 0.14721793
0002e0 48 92 07 be f0 47 f9 bd be ba a1 3d 5c 1a c1 bd
       -0.13239396 -0.12171924 0.07896946 -0.09428856
0002f0 13 3b 51 3e 4f 5f e8 bc f6 ed 2e be 61 be d7 bb
       0.20432691 -0.02836576 -0.17082962 -0.006583974
000300 e9 b1 59 3e 91 8b 69 bd b1 6f dc 3d 6b 46 1e bd
       0.21259274 -0.057017867 0.10763491 -0.038641375
000310 9f b4 f0 bd bf de 68 3e a0 06 f4 bc 27 b8 fe bd
       -0.11753201 0.22741221 -0.029788315 -0.12437468
000320 e2 ad 1e be 46 0d 14 3c 2b 6a 6c bd 5b 1a 78 3d
       -0.15496019 0.009036368 -0.057718437 0.06057201
000330 2e d5 30 3e 66 e1 1a be 04 72 52 be 5b e8 34 3e
       0.17268822 -0.15125045 -0.20551306 0.17666762
000340 3b 26 6b 3e 97 73 1c bd 65 56 40 3e ae 04 b9 bd
       0.22963803 -0.038196173 0.18782957 -0.09034096
000350 0f a4 24 3e db 15 6f bd a1 e9 08 be 8c 20 48 bc
       0.16078208 -0.058370452 -0.13370372 -0.012214791
000360 27 9d fb 3d 01 28 41 3e 23 b6 68 bd fb c1 25 be
       0.12285834 0.18862917 -0.056814324 -0.16187279
000370 7c 48 8a 3e 71 45 32 3c 54 20 38 bb 53 dc 8b bd
       0.27008426 0.010880814 -0.002809544 -0.06829133
000380 89 1e 10 3e 9f e0 27 be 7b ff 2a 3e 00 59 01 3e
       0.14074148 -0.1639428 0.1669902 0.12631607
000390 c9 1c 8d 3d e2 b9 1c 3e 52 8c 18 bd 62 21 c1 3d
       0.06890256 0.15305284 -0.037243195 0.094301954
0003a0 b9 68 9f bc 45 c7 4b be 40 7d a8 bd 4b 64 05 3e
       -0.019459115 -0.19900234 -0.082270145 0.1302654
0003b0 b4 03 00 be 45 ab 69 3e 6b e3 a4 3d db b7 33 be
       -0.12501413 0.2281924 0.08051189 -0.17550604
0003c0 9f a2 b9 3d c1 72 b3 bd eb a4 fe 3d 5e a6 d0 3d
       0.09064221 -0.08762122 0.12433799 0.10187982
0003d0 0c 24 8e 3d b0 b4 34 be 1f f8 59 be 0c 9b 69 bd
       0.06940469 -0.17647052 -0.21286057 -0.05703263
0003e0 ad 04 85 3e b9 e1 cb 3d 81 40 e2 3d c8 e6 61 be
       0.2598013 0.099551626 0.110474594 -0.22060692
0003f0 66 09 7b 3d 73 5a d6 3d 8a c8 1c 3d fe 53 ac 3d
       0.06128826 0.104664706 0.038277186 0.08414458
